…
it_class=True, reg_start_epoch=10, reg_update_freq=5, res=False, result_dir='mlp_gt/results_full', runs=5, save_model=False, save_result=False, seed=123, test_num=1000, train_prop=0.5, use_act=False, use_bn=True, use_graph=False, use_reg=False, use_residual=False, use_weight=False, valid_num=500, valid_prop=0.25, weight_decay=0.0005)
amazon-computer
train:torch.Size([200]), valid:torch.Size([500]), test:torch.Size([1000])
dataset amazon-computer | num nodes 13752 | num edge 491722 | num node feats 767 | num classes 10
MODEL: NodeFormer(
  (convs): ModuleList(
    (0): NodeFormerConv(
      (Wk): Linear(in_features=128, out_features=512, bias=True)
      (Wq): Linear(in_features=128, out_features=512, bias=True)
      (Wv): Linear(in_features=128, out_features=512, bias=True)
      (Wo): Linear(in_features=512, out_features=128, bias=True)
    )
    (1): NodeFormerConv(
      (Wk): Linear(in_features=128, out_features=512, bias=True)
      (Wq): Linear(in_features=128, out_features=512, bias=True)
      (Wv): Linear(in_features=128, out_features=512, bias=True)
      (Wo): Linear(in_features=512, out_features=128, bias=True)
    )
  )
  (fcs): ModuleList(
    (0): Linear(in_features=767, out_features=128, bias=True)
    (1): Linear(in_features=128, out_features=10, bias=True)
  )
  (bns): ModuleList(
    (0): LayerNorm((128,), eps=1e-05, elementwise_affine=True)
    (1): LayerNorm((128,), eps=1e-05, elementwise_affine=True)
    (2): LayerNorm((128,), eps=1e-05, elementwise_affine=True)
  )
)

Running with MLP-GT Regularization (lambda=0.01)...
Namespace(aggregate='add', alpha=0.5, attention='gcn', beta=-1.0, bn=False, cpu=False, data_dir='../data/', dataset='amazon-computer', device=0, dim_inner=128, display_step=100, dropout=0.3, epochs=1000, global_dropout=None, global_layers=2, gnn='gcn', graph_weight=0.8, hidden_channels=128, hops=
…
