…
st_num=1000, train_prop=0.5, use_reg=False, valid_num=500, valid_prop=0.25, weight_decay=0.0005)
minesweeper
dataset minesweeper | num nodes 10000 | num edge 39402 | num node feats 7 | num classes 2
MODEL: MPNNs(
  (h_lins): ModuleList()
  (local_convs): ModuleList(
    (0): GCNConv(7, 64)
    (1): GCNConv(64, 64)
    (2): GCNConv(64, 64)
    (3): GCNConv(64, 64)
    (4): GCNConv(64, 64)
    (5): GCNConv(64, 64)
    (6): GCNConv(64, 64)
    (7): GCNConv(64, 64)
    (8): GCNConv(64, 64)
    (9): GCNConv(64, 64)
    (10): GCNConv(64, 64)
    (11): GCNConv(64, 64)
  )
  (lins): ModuleList(
    (0): Linear(in_features=7, out_features=64, bias=True)
    (1): Linear(in_features=64, out_features=64, bias=True)
    (2): Linear(in_features=64, out_features=64, bias=True)
    (3): Linear(in_features=64, out_features=64, bias=True)
    (4): Linear(in_features=64, out_features=64, bias=True)
    (5): Linear(in_features=64, out_features=64, bias=True)
    (6): Linear(in_features=64, out_features=64, bias=True)
    (7): Linear(in_features=64, out_features=64, bias=True)
    (8): Linear(in_features=64, out_features=64, bias=True)
    (9): Linear(in_features=64, out_features=64, bias=True)
    (10): Linear(in_features=64, out_features=64, bias=True)
    (11): Linear(in_features=64, out_features=64, bias=True)
  )
  (lns): ModuleList(
    (0): LayerNorm((64,), eps=1e-05, elementwise_affine=True)
    (1): LayerNorm((64,), eps=1e-05, elementwise_affine=True)
    (2): LayerNorm((64,), eps=1e-05, elementwise_affine=True)
    (3): LayerNorm((64,), eps=1e-05, elementwise_affine=True)
    (4): LayerNorm((64,), eps=1e-05, elementwise_affine=True)
    (5): LayerNorm((64,), eps=1e-05, elementwise_affine=True)
    (6): LayerNorm((64,), eps=1e-05, elementwise_affine=True)
    (7): LayerNorm((64,), eps=1e-05, elementwise_affine=True)
    (8): LayerNorm((64,), eps=1e-05, elementwise_affine=True)
    (9): LayerNorm((64,), eps=1e-05, elementwise_affine=True)
    (10): LayerNorm((64,), eps=1e-05, elementwise_affine=True)
    (11): LayerNorm((64,), eps=1e-05, elementwise_affine=True)
  )
  (bns): ModuleList(
    (0): BatchNorm1d(64, eps=1e-05, momentum=0.1, affine=True, track_running_stats=True)
    (1): BatchNorm1d(64, eps=1e-05, momentum=0.1, affine=True, track_running_stats=True)
    (2): BatchNorm1d(64, eps=1e-05, momentum=0.1, affine=True, track_running_stats=True)
    (3): BatchNorm1d(64, eps=1e-05, momentum=0.1, affine=True, track_running_stats=True)
    (4): BatchNorm1d(64, eps=1e-05, momentum=0.1, affine=True, track_running_stats=True)
    (5): BatchNorm1d(64, eps=1e-05, momentum=0.1, affine=True, track_running_stats=True)
    (6): BatchNorm1d(64, eps=1e-05, momentum=0.1, affine=True, track_running_stats=True)
    (7): BatchNorm1d(64, eps=1e-05, momentum=0.1, affine=True, track_running_stats=True)
    (8): BatchNorm1d(64, eps=1e-05, momentum=0.1, affine=True, track_running_stats=True)
    (9): BatchNorm1d(64, eps=1e-05, momentum=0.1, affine=True, track_running_stats=True)
    (10): BatchNorm1d(64, eps=1e-05, momentum=0.1, affine=True, track_running_stats=True)
    (11): BatchNorm1d(64, eps=1e-05, momentum=0.1, affine=True, track_running_stats=True)
  )
  (lin_in): Linear(in_features=7, out_features=64, bias=True)
  (pred_local): Linear(in_features=64, out_features=2, bias=True)
)
Epoch: 00, Loss: 0.8907, Train: 41.50%, Valid: 41.55%, Test: 41.73%, Best Valid: 41.55%, Best Test: 41.73%
Epoch: 100, Loss: 0.2473, Train: 94.74%, Valid: 92.45%, Test: 93.82%, Best Valid: 92.45%, Best Test: 93.82%
Epoch: 200, Loss: 0.1979, Train: 97.61%, Valid: 95.28%, Test: 96.21%, Best Valid: 95.95%, Best Test: 96.52%
Epoch: 300, Loss: 0.1787, Train: 98.26%, Valid: 96.16%, Test: 96.80%, Best Valid: 96.45%, Best Test: 97.18%
…
