…
Namespace(bn=False, cpu=False, data_dir='./data/', dataset='amazon-computer', device=0, display_step=100, dropout=0.5, epochs=1000, gnn='gcn', hidden_channels=512, jk=False, label_num_per_class=20, lambda_val=0.5, ln=True, local_layers=3, lr=0.001, metric='acc', model='MPNN', model_dir='./model/', num_heads=1, pre_linear=False, pre_ln=False, rand_split=False, rand_split_class=False, reg_start_epoch=10, reg_update_freq=5, res=False, runs=3, save_model=False, seed=42, test_num=1000, train_prop=0.5, use_reg=False, valid_num=500, valid_prop=0.25, weight_decay=5e-05)
amazon-computer
dataset amazon-computer | num nodes 13752 | num edge 491722 | num node feats 767 | num classes 10
MODEL: MPNNs(
  (h_lins): ModuleList()
  (local_convs): ModuleList(
    (0): GCNConv(767, 512)
    (1): GCNConv(512, 512)
    (2): GCNConv(512, 512)
  )
  (lins): ModuleList(
    (0): Linear(in_features=767, out_features=512, bias=True)
    (1): Linear(in_features=512, out_features=512, bias=True)
    (2): Linear(in_features=512, out_features=512, bias=True)
  )
  (lns): ModuleList(
    (0): LayerNorm((512,), eps=1e-05, elementwise_affine=True)
    (1): LayerNorm((512,), eps=1e-05, elementwise_affine=True)
    (2): LayerNorm((512,), eps=1e-05, elementwise_affine=True)
  )
  (bns): ModuleList(
    (0): BatchNorm1d(512, eps=1e-05, momentum=0.1, affine=True, track_running_stats=True)
    (1): BatchNorm1d(512, eps=1e-05, momentum=0.1, affine=True, track_running_stats=True)
    (2): BatchNorm1d(512, eps=1e-05, momentum=0.1, affine=True, track_running_stats=True)
  )
  (lin_in): Linear(in_features=767, out_features=512, bias=True)
  (pred_local): Linear(in_features=512, out_features=10, bias=True)
)
Epoch: 00, Loss: 2.5506, Train: 37.61%, Valid: 36.18%, Test: 38.53%, Best Valid: 36.18%, Best Test: 38.53%
Epoch: 100, Loss: 0.2973, Train: 91.03%, Valid: 89.82%, Test: 91.42%, Best Valid: 89.82%, Best Test: 91.42%
Epoch: 200, Loss: 0.3094, Train: 90.91%, Valid: 89.20%, Test: 90.99%, Best Valid: 91.78%, Best Test: 93.13%
Epoch: 300, Loss: 0.2008, Train: 93.95%, Valid: 91.78%, Test: 93.71%, Best Valid: 92.00%, Best Test: 93.57%
…
e_ln=False, rand_split=False, rand_split_class=False, reg_start_epoch=10, reg_update_freq=5, res=False, runs=3, save_model=False, seed=42, test_num=1000, train_prop=0.5, use_reg=False, valid_num=500, valid_prop=0.25, weight_decay=5e-05)
amazon-computer
dataset amazon-computer | num nodes 13752 | num edge 491722 | num node feats 767 | num classes 10
MODEL: MPNNs(
  (h_lins): ModuleList()
  (local_convs): ModuleList(
    (0): SAGEConv(767, 64, aggr=mean)
    (1): SAGEConv(64, 64, aggr=mean)
    (2): SAGEConv(64, 64, aggr=mean)
    (3): SAGEConv(64, 64, aggr=mean)
  )
  (lins): ModuleList(
    (0): Linear(in_features=767, out_features=64, bias=True)
    (1): Linear(in_features=64, out_features=64, bias=True)
    (2): Linear(in_features=64, out_features=64, bias=True)
    (3): Linear(in_features=64, out_features=64, bias=True)
  )
  (lns): ModuleList(
    (0): LayerNorm((64,), eps=1e-05, elementwise_affine=True)
    (1): LayerNorm((64,), eps=1e-05, elementwise_affine=True)
    (2): LayerNorm((64,), eps=1e-05, elementwise_affine=True)
    (3): LayerNorm((64,), eps=1e-05, elementwise_affine=True)
  )
  (bns): ModuleList(
    (0): BatchNorm1d(64, eps=1e-05, momentum=0.1, affine=True, track_running_stats=True)
    (1): BatchNorm1d(64, eps=1e-05, momentum=0.1, affine=True, track_running_stats=True)
    (2): BatchNorm1d(64, eps=1e-05, momentum=0.1, affine=True, track_running_stats=True)
    (3): BatchNorm1d(64, eps=1e-05, momentum=0.1, affine=True, track_running_stats=True)
  )
  (lin_in): Linear(in_features=767, out_features=64, bias=True)
  (pred_local): Linear(in_features=64, out_features=10, bias=True)
)
Epoch: 00, Loss: 2.2890, Train: 37.61%, Valid: 36.18%, Test: 38.50%, Best Valid: 36.18%, Best Test: 38.50%
Epoch: 100, Loss: 0.4558, Train: 90.30%, Valid: 88.15%, Test: 89.93%, Best Valid: 88.15%, Best Test: 89.82%
Epoch: 200, Loss: 0.2348, Train: 95.56%, Valid: 92.04%, Test: 93.24%, Best Valid: 92.22%, Best Test: 93.02%
Epoch: 300, Loss: 0.1867, Train: 97.10%, Valid: 91.78%, Test: 93.42%, Best Valid: 92.22%, Best Test: 93.02%
…
Namespace(bn=False, cpu=False, data_dir='./data/', dataset='amazon-computer', device=0, display_step=100, dropout=0.5, epochs=1000, gnn='gat', hidden_channels=64, jk=False, label_num_per_class=20, lambda_val=0.5, ln=True, local_layers=2, lr=0.001, metric='acc', model='MPNN', model_dir='./model/', num_heads=1, pre_linear=False, pre_ln=False, rand_split=False, rand_split_class=False, reg_start_epoch=10, reg_update_freq=5, res=False, runs=3, save_model=False, seed=42, test_num=1000, train_prop=0.5, use_reg=False, valid_num=500, valid_prop=0.25, weight_decay=5e-05)
amazon-computer
dataset amazon-computer | num nodes 13752 | num edge 491722 | num node feats 767 | num classes 10
MODEL: MPNNs(
  (h_lins): ModuleList()
  (local_convs): ModuleList(
    (0): GATConv(767, 64, heads=1)
    (1): GATConv(64, 64, heads=1)
  )
  (lins): ModuleList(
    (0): Linear(in_features=767, out_features=64, bias=True)
    (1): Linear(in_features=64, out_features=64, bias=True)
  )
  (lns): ModuleList(
    (0): LayerNorm((64,), eps=1e-05, elementwise_affine=True)
    (1): LayerNorm((64,), eps=1e-05, elementwise_affine=True)
  )
  (bns): ModuleList(
    (0): BatchNorm1d(64, eps=1e-05, momentum=0.1, affine=True, track_running_stats=True)
    (1): BatchNorm1d(64, eps=1e-05, momentum=0.1, affine=True, track_running_stats=True)
  )
  (lin_in): Linear(in_features=767, out_features=64, bias=True)
  (pred_local): Linear(in_features=64, out_features=10, bias=True)
)
Epoch: 00, Loss: 2.4074, Train: 17.96%, Valid: 18.36%, Test: 16.72%, Best Valid: 18.36%, Best Test: 16.72%
Epoch: 100, Loss: 0.4912, Train: 89.02%, Valid: 87.53%, Test: 90.22%, Best Valid: 88.25%, Best Test: 91.13%
Epoch: 200, Loss: 0.3249, Train: 92.86%, Valid: 91.27%, Test: 93.02%, Best Valid: 91.45%, Best Test: 92.69%
Epoch: 300, Loss: 0.2651, Train: 93.84%, Valid: 91.42%, Test: 93.24%, Best Valid: 92.11%, Best Test: 93.57%
…
=False, rand_split=False, rand_split_class=False, reg_start_epoch=10, reg_update_freq=5, res=True, runs=3, save_model=False, seed=42, test_num=1000, train_prop=0.5, use_reg=False, valid_num=500, valid_prop=0.25, weight_decay=5e-05)
amazon-photo
dataset amazon-photo | num nodes 7650 | num edge 238162 | num node feats 745 | num classes 8
MODEL: MPNNs(
  (h_lins): ModuleList()
  (local_convs): ModuleList(
    (0): GCNConv(745, 256)
    (1): GCNConv(256, 256)
    (2): GCNConv(256, 256)
    (3): GCNConv(256, 256)
    (4): GCNConv(256, 256)
    (5): GCNConv(256, 256)
  )
  (lins): ModuleList(
    (0): Linear(in_features=745, out_features=256, bias=True)
    (1): Linear(in_features=256, out_features=256, bias=True)
    (2): Linear(in_features=256, out_features=256, bias=True)
    (3): Linear(in_features=256, out_features=256, bias=True)
    (4): Linear(in_features=256, out_features=256, bias=True)
    (5): Linear(in_features=256, out_features=256, bias=True)
  )
  (lns): ModuleList(
    (0): LayerNorm((256,), eps=1e-05, elementwise_affine=True)
    (1): LayerNorm((256,), eps=1e-05, elementwise_affine=True)
    (2): LayerNorm((256,), eps=1e-05, elementwise_affine=True)
    (3): LayerNorm((256,), eps=1e-05, elementwise_affine=True)
    (4): LayerNorm((256,), eps=1e-05, elementwise_affine=True)
    (5): LayerNorm((256,), eps=1e-05, elementwise_affine=True)
  )
  (bns): ModuleList(
    (0): BatchNorm1d(256, eps=1e-05, momentum=0.1, affine=True, track_running_stats=True)
    (1): BatchNorm1d(256, eps=1e-05, momentum=0.1, affine=True, track_running_stats=True)
    (2): BatchNorm1d(256, eps=1e-05, momentum=0.1, affine=True, track_running_stats=True)
    (3): BatchNorm1d(256, eps=1e-05, momentum=0.1, affine=True, track_running_stats=True)
    (4): BatchNorm1d(256, eps=1e-05, momentum=0.1, affine=True, track_running_stats=True)
    (5): BatchNorm1d(256, eps=1e-05, momentum=0.1, affine=True, track_running_stats=True)
  )
  (lin_in): Linear(in_features=745, out_features=256, bias=True)
  (pred_local): Linear(in_features=256, out_features=8, bias=True)
)
Epoch: 00, Loss: 2.2032, Train: 27.67%, Valid: 27.19%, Test: 27.65%, Best Valid: 27.19%, Best Test: 27.65%
Epoch: 100, Loss: 0.1831, Train: 95.93%, Valid: 94.05%, Test: 95.03%, Best Valid: 94.18%, Best Test: 94.64%
Epoch: 200, Loss: 0.0827, Train: 98.74%, Valid: 94.97%, Test: 95.82%, Best Valid: 95.03%, Best Test: 95.16%
Epoch: 300, Loss: 0.0416, Train: 99.50%, Valid: 95.03%, Test: 96.41%, Best Valid: 95.42%, Best Test: 96.41%
…
poch=10, reg_update_freq=5, res=True, runs=3, save_model=False, seed=42, test_num=1000, train_prop=0.5, use_reg=False, valid_num=500, valid_prop=0.25, weight_decay=5e-05)
amazon-photo
dataset amazon-photo | num nodes 7650 | num edge 238162 | num node feats 745 | num classes 8
MODEL: MPNNs(
  (h_lins): ModuleList()
  (local_convs): ModuleList(
    (0): SAGEConv(745, 64, aggr=mean)
    (1): SAGEConv(64, 64, aggr=mean)
    (2): SAGEConv(64, 64, aggr=mean)
    (3): SAGEConv(64, 64, aggr=mean)
    (4): SAGEConv(64, 64, aggr=mean)
    (5): SAGEConv(64, 64, aggr=mean)
  )
  (lins): ModuleList(
    (0): Linear(in_features=745, out_features=64, bias=True)
    (1): Linear(in_features=64, out_features=64, bias=True)
    (2): Linear(in_features=64, out_features=64, bias=True)
    (3): Linear(in_features=64, out_features=64, bias=True)
    (4): Linear(in_features=64, out_features=64, bias=True)
    (5): Linear(in_features=64, out_features=64, bias=True)
  )
  (lns): ModuleList(
    (0): LayerNorm((64,), eps=1e-05, elementwise_affine=True)
    (1): LayerNorm((64,), eps=1e-05, elementwise_affine=True)
    (2): LayerNorm((64,), eps=1e-05, elementwise_affine=True)
    (3): LayerNorm((64,), eps=1e-05, elementwise_affine=True)
    (4): LayerNorm((64,), eps=1e-05, elementwise_affine=True)
    (5): LayerNorm((64,), eps=1e-05, elementwise_affine=True)
  )
  (bns): ModuleList(
    (0): BatchNorm1d(64, eps=1e-05, momentum=0.1, affine=True, track_running_stats=True)
    (1): BatchNorm1d(64, eps=1e-05, momentum=0.1, affine=True, track_running_stats=True)
    (2): BatchNorm1d(64, eps=1e-05, momentum=0.1, affine=True, track_running_stats=True)
    (3): BatchNorm1d(64, eps=1e-05, momentum=0.1, affine=True, track_running_stats=True)
    (4): BatchNorm1d(64, eps=1e-05, momentum=0.1, affine=True, track_running_stats=True)
    (5): BatchNorm1d(64, eps=1e-05, momentum=0.1, affine=True, track_running_stats=True)
  )
  (lin_in): Linear(in_features=745, out_features=64, bias=True)
  (pred_local): Linear(in_features=64, out_features=8, bias=True)
)
Epoch: 00, Loss: 2.1355, Train: 22.11%, Valid: 21.57%, Test: 22.29%, Best Valid: 21.57%, Best Test: 22.29%
Epoch: 100, Loss: 0.2428, Train: 95.77%, Valid: 94.05%, Test: 94.90%, Best Valid: 94.12%, Best Test: 95.10%
Epoch: 200, Loss: 0.0849, Train: 99.02%, Valid: 95.16%, Test: 96.34%, Best Valid: 95.36%, Best Test: 96.47%
Epoch: 300, Loss: 0.0403, Train: 99.69%, Valid: 94.84%, Test: 96.14%, Best Valid: 95.36%, Best Test: 96.47%
…
Namespace(bn=False, cpu=False, data_dir='./data/', dataset='amazon-photo', device=0, display_step=100, dropout=0.5, epochs=1000, gnn='gat', hidden_channels=64, jk=False, label_num_per_class=20, lambda_val=0.5, ln=True, local_layers=3, lr=0.001, metric='acc', model='MPNN', model_dir='./model/', num_heads=1, pre_linear=False, pre_ln=False, rand_split=False, rand_split_class=False, reg_start_epoch=10, reg_update_freq=5, res=True, runs=3, save_model=False, seed=42, test_num=1000, train_prop=0.5, use_reg=False, valid_num=500, valid_prop=0.25, weight_decay=5e-05)
amazon-photo
dataset amazon-photo | num nodes 7650 | num edge 238162 | num node feats 745 | num classes 8
MODEL: MPNNs(
  (h_lins): ModuleList()
  (local_convs): ModuleList(
    (0): GATConv(745, 64, heads=1)
    (1): GATConv(64, 64, heads=1)
    (2): GATConv(64, 64, heads=1)
  )
  (lins): ModuleList(
    (0): Linear(in_features=745, out_features=64, bias=True)
    (1): Linear(in_features=64, out_features=64, bias=True)
    (2): Linear(in_features=64, out_features=64, bias=True)
  )
  (lns): ModuleList(
    (0): LayerNorm((64,), eps=1e-05, elementwise_affine=True)
    (1): LayerNorm((64,), eps=1e-05, elementwise_affine=True)
    (2): LayerNorm((64,), eps=1e-05, elementwise_affine=True)
  )
  (bns): ModuleList(
    (0): BatchNorm1d(64, eps=1e-05, momentum=0.1, affine=True, track_running_stats=True)
    (1): BatchNorm1d(64, eps=1e-05, momentum=0.1, affine=True, track_running_stats=True)
    (2): BatchNorm1d(64, eps=1e-05, momentum=0.1, affine=True, track_running_stats=True)
  )
  (lin_in): Linear(in_features=745, out_features=64, bias=True)
  (pred_local): Linear(in_features=64, out_features=8, bias=True)
)
Epoch: 00, Loss: 2.2842, Train: 4.49%, Valid: 3.66%, Test: 4.64%, Best Valid: 3.66%, Best Test: 4.64%
Epoch: 100, Loss: 0.3138, Train: 96.43%, Valid: 94.51%, Test: 95.10%, Best Valid: 94.51%, Best Test: 94.64%
Epoch: 200, Loss: 0.1171, Train: 99.37%, Valid: 95.10%, Test: 96.73%, Best Valid: 95.49%, Best Test: 96.67%
Epoch: 300, Loss: 0.0696, Train: 99.65%, Valid: 95.56%, Test: 96.47%, Best Valid: 95.75%, Best Test: 96.60%
…
Namespace(bn=False, cpu=False, data_dir='./data/', dataset='coauthor-cs', device=0, display_step=100, dropout=0.3, epochs=1500, gnn='gcn', hidden_channels=512, jk=False, label_num_per_class=20, lambda_val=0.5, ln=True, local_layers=2, lr=0.001, metric='acc', model='MPNN', model_dir='./model/', num_heads=1, pre_linear=False, pre_ln=False, rand_split=False, rand_split_class=False, reg_start_epoch=10, reg_update_freq=5, res=True, runs=3, save_model=False, seed=42, test_num=1000, train_prop=0.5, use_reg=False, valid_num=500, valid_prop=0.25, weight_decay=0.0005)
coauthor-cs
dataset coauthor-cs | num nodes 18333 | num edge 163788 | num node feats 6805 | num classes 15
MODEL: MPNNs(
  (h_lins): ModuleList()
  (local_convs): ModuleList(
    (0): GCNConv(6805, 512)
    (1): GCNConv(512, 512)
  )
  (lins): ModuleList(
    (0): Linear(in_features=6805, out_features=512, bias=True)
    (1): Linear(in_features=512, out_features=512, bias=True)
  )
  (lns): ModuleList(
    (0): LayerNorm((512,), eps=1e-05, elementwise_affine=True)
    (1): LayerNorm((512,), eps=1e-05, elementwise_affine=True)
  )
  (bns): ModuleList(
    (0): BatchNorm1d(512, eps=1e-05, momentum=0.1, affine=True, track_running_stats=True)
    (1): BatchNorm1d(512, eps=1e-05, momentum=0.1, affine=True, track_running_stats=True)
  )
  (lin_in): Linear(in_features=6805, out_features=512, bias=True)
  (pred_local): Linear(in_features=512, out_features=15, bias=True)
)
Epoch: 00, Loss: 2.8285, Train: 22.05%, Valid: 23.92%, Test: 22.74%, Best Valid: 23.92%, Best Test: 22.74%
Epoch: 100, Loss: 0.0032, Train: 100.00%, Valid: 94.49%, Test: 95.37%, Best Valid: 95.23%, Best Test: 96.13%
Epoch: 200, Loss: 0.0093, Train: 99.92%, Valid: 94.90%, Test: 95.53%, Best Valid: 95.44%, Best Test: 95.75%
Epoch: 300, Loss: 0.0025, Train: 100.00%, Valid: 94.60%, Test: 95.07%, Best Valid: 95.44%, Best Test: 95.75%
…
Namespace(bn=False, cpu=False, data_dir='./data/', dataset='coauthor-cs', device=0, display_step=100, dropout=0.3, epochs=1500, gnn='gat', hidden_channels=256, jk=False, label_num_per_class=20, lambda_val=0.5, ln=True, local_layers=1, lr=0.001, metric='acc', model='MPNN', model_dir='./model/', num_heads=1, pre_linear=False, pre_ln=False, rand_split=False, rand_split_class=False, reg_start_epoch=10, reg_update_freq=5, res=True, runs=3, save_model=False, seed=42, test_num=1000, train_prop=0.5, use_reg=False, valid_num=500, valid_prop=0.25, weight_decay=0.0005)
coauthor-cs
dataset coauthor-cs | num nodes 18333 | num edge 163788 | num node feats 6805 | num classes 15
MODEL: MPNNs(
  (h_lins): ModuleList()
  (local_convs): ModuleList(
    (0): GATConv(6805, 256, heads=1)
  )
  (lins): ModuleList(
    (0): Linear(in_features=6805, out_features=256, bias=True)
  )
  (lns): ModuleList(
    (0): LayerNorm((256,), eps=1e-05, elementwise_affine=True)
  )
  (bns): ModuleList(
    (0): BatchNorm1d(256, eps=1e-05, momentum=0.1, affine=True, track_running_stats=True)
  )
  (lin_in): Linear(in_features=6805, out_features=256, bias=True)
  (pred_local): Linear(in_features=256, out_features=15, bias=True)
)
Epoch: 00, Loss: 2.9841, Train: 56.93%, Valid: 55.26%, Test: 55.15%, Best Valid: 55.26%, Best Test: 55.15%
Epoch: 100, Loss: 0.0146, Train: 100.00%, Valid: 95.31%, Test: 96.02%, Best Valid: 95.36%, Best Test: 96.24%
Epoch: 200, Loss: 0.0084, Train: 100.00%, Valid: 94.90%, Test: 95.77%, Best Valid: 95.36%, Best Test: 96.24%
Epoch: 300, Loss: 0.0064, Train: 100.00%, Valid: 94.65%, Test: 95.56%, Best Valid: 95.36%, Best Test: 96.24%
…
Namespace(bn=False, cpu=False, data_dir='./data/', dataset='coauthor-physics', device=0, display_step=100, dropout=0.3, epochs=1500, gnn='gcn', hidden_channels=64, jk=False, label_num_per_class=20, lambda_val=0.5, ln=True, local_layers=2, lr=0.001, metric='acc', model='MPNN', model_dir='./model/', num_heads=1, pre_linear=False, pre_ln=False, rand_split=False, rand_split_class=False, reg_start_epoch=10, reg_update_freq=5, res=True, runs=3, save_model=False, seed=42, test_num=1000, train_prop=0.5, use_reg=False, valid_num=500, valid_prop=0.25, weight_decay=0.0005)
coauthor-physics
dataset coauthor-physics | num nodes 34493 | num edge 495924 | num node feats 8415 | num classes 5
MODEL: MPNNs(
  (h_lins): ModuleList()
  (local_convs): ModuleList(
    (0): GCNConv(8415, 64)
    (1): GCNConv(64, 64)
  )
  (lins): ModuleList(
    (0): Linear(in_features=8415, out_features=64, bias=True)
    (1): Linear(in_features=64, out_features=64, bias=True)
  )
  (lns): ModuleList(
    (0): LayerNorm((64,), eps=1e-05, elementwise_affine=True)
    (1): LayerNorm((64,), eps=1e-05, elementwise_affine=True)
  )
  (bns): ModuleList(
    (0): BatchNorm1d(64, eps=1e-05, momentum=0.1, affine=True, track_running_stats=True)
    (1): BatchNorm1d(64, eps=1e-05, momentum=0.1, affine=True, track_running_stats=True)
  )
  (lin_in): Linear(in_features=8415, out_features=64, bias=True)
  (pred_local): Linear(in_features=64, out_features=5, bias=True)
)
Epoch: 00, Loss: 1.8974, Train: 17.13%, Valid: 17.03%, Test: 16.68%, Best Valid: 17.03%, Best Test: 16.68%
Epoch: 100, Loss: 0.0441, Train: 99.90%, Valid: 97.06%, Test: 97.57%, Best Valid: 97.23%, Best Test: 97.52%
Epoch: 200, Loss: 0.0146, Train: 99.99%, Valid: 96.78%, Test: 97.06%, Best Valid: 97.23%, Best Test: 97.52%
Epoch: 300, Loss: 0.0084, Train: 100.00%, Valid: 96.68%, Test: 97.00%, Best Valid: 97.23%, Best Test: 97.52%
…
Namespace(bn=True, cpu=False, data_dir='./data/', dataset='coauthor-physics', device=0, display_step=100, dropout=0.7, epochs=1500, gnn='gat', hidden_channels=256, jk=False, label_num_per_class=20, lambda_val=0.5, ln=False, local_layers=2, lr=0.001, metric='acc', model='MPNN', model_dir='./model/', num_heads=1, pre_linear=False, pre_ln=False, rand_split=False, rand_split_class=False, reg_start_epoch=10, reg_update_freq=5, res=True, runs=3, save_model=False, seed=42, test_num=1000, train_prop=0.5, use_reg=False, valid_num=500, valid_prop=0.25, weight_decay=0.0005)
coauthor-physics
dataset coauthor-physics | num nodes 34493 | num edge 495924 | num node feats 8415 | num classes 5
MODEL: MPNNs(
  (h_lins): ModuleList()
  (local_convs): ModuleList(
    (0): GATConv(8415, 256, heads=1)
    (1): GATConv(256, 256, heads=1)
  )
  (lins): ModuleList(
    (0): Linear(in_features=8415, out_features=256, bias=True)
    (1): Linear(in_features=256, out_features=256, bias=True)
  )
  (lns): ModuleList(
    (0): LayerNorm((256,), eps=1e-05, elementwise_affine=True)
    (1): LayerNorm((256,), eps=1e-05, elementwise_affine=True)
  )
  (bns): ModuleList(
    (0): BatchNorm1d(256, eps=1e-05, momentum=0.1, affine=True, track_running_stats=True)
    (1): BatchNorm1d(256, eps=1e-05, momentum=0.1, affine=True, track_running_stats=True)
  )
  (lin_in): Linear(in_features=8415, out_features=256, bias=True)
  (pred_local): Linear(in_features=256, out_features=5, bias=True)
)
Epoch: 00, Loss: 1.9469, Train: 16.90%, Valid: 15.92%, Test: 16.72%, Best Valid: 15.92%, Best Test: 16.72%
Epoch: 100, Loss: 0.0197, Train: 99.86%, Valid: 97.14%, Test: 97.16%, Best Valid: 97.14%, Best Test: 97.16%
Epoch: 200, Loss: 0.0074, Train: 100.00%, Valid: 96.96%, Test: 97.17%, Best Valid: 97.14%, Best Test: 97.16%
Epoch: 300, Loss: 0.0064, Train: 100.00%, Valid: 96.74%, Test: 97.13%, Best Valid: 97.14%, Best Test: 97.16%
…
