…
Namespace(bn=False, cpu=False, data_dir='./data/', dataset='coauthor-physics', device=0, display_step=100, dropout=0.3, epochs=1500, gnn='gcn', hidden_channels=64, jk=False, label_num_per_class=20, lambda_val=0.5, ln=True, local_layers=2, lr=0.001, metric='acc', mlp_epochs=500, mlp_reg=False, model='MPNN', model_dir='./model/', num_heads=1, pre_linear=False, pre_ln=False, rand_split=False, rand_split_class=False, reg_start_epoch=10, reg_update_freq=5, res=True, runs=3, save_model=False, seed=42, test_num=1000, train_prop=0.5, use_reg=False, valid_num=500, valid_prop=0.25, weight_decay=0.0005)
coauthor-physics
dataset coauthor-physics | num nodes 34493 | num edge 495924 | num node feats 8415 | num classes 5
MODEL: MPNNs(
  (h_lins): ModuleList()
  (local_convs): ModuleList(
    (0): GCNConv(8415, 64)
    (1): GCNConv(64, 64)
  )
  (lins): ModuleList(
    (0): Linear(in_features=8415, out_features=64, bias=True)
    (1): Linear(in_features=64, out_features=64, bias=True)
  )
  (lns): ModuleList(
    (0): LayerNorm((64,), eps=1e-05, elementwise_affine=True)
    (1): LayerNorm((64,), eps=1e-05, elementwise_affine=True)
  )
  (bns): ModuleList(
    (0): BatchNorm1d(64, eps=1e-05, momentum=0.1, affine=True, track_running_stats=True)
    (1): BatchNorm1d(64, eps=1e-05, momentum=0.1, affine=True, track_running_stats=True)
  )
  (lin_in): Linear(in_features=8415, out_features=64, bias=True)
  (pred_local): Linear(in_features=64, out_features=5, bias=True)
)
Epoch: 00, Loss: 1.8974, Train: 17.13%, Valid: 17.03%, Test: 16.68%, Best Valid: 17.03%, Best Test: 16.68%
Epoch: 100, Loss: 0.0441, Train: 99.90%, Valid: 97.06%, Test: 97.57%, Best Valid: 97.23%, Best Test: 97.52%
Epoch: 200, Loss: 0.0146, Train: 99.99%, Valid: 96.81%, Test: 97.07%, Best Valid: 97.23%, Best Test: 97.52%
Epoch: 300, Loss: 0.0078, Train: 100.00%, Valid: 96.58%, Test: 97.12%, Best Valid: 97.23%, Best Test: 97.52%
…
Namespace(bn=True, cpu=False, data_dir='./data/', dataset='coauthor-physics', device=0, display_step=100, dropout=0.7, epochs=1500, gnn='gat', hidden_channels=256, jk=False, label_num_per_class=20, lambda_val=0.5, ln=False, local_layers=2, lr=0.001, metric='acc', mlp_epochs=500, mlp_reg=False, model='MPNN', model_dir='./model/', num_heads=1, pre_linear=False, pre_ln=False, rand_split=False, rand_split_class=False, reg_start_epoch=10, reg_update_freq=5, res=True, runs=3, save_model=False, seed=42, test_num=1000, train_prop=0.5, use_reg=False, valid_num=500, valid_prop=0.25, weight_decay=0.0005)
coauthor-physics
dataset coauthor-physics | num nodes 34493 | num edge 495924 | num node feats 8415 | num classes 5
MODEL: MPNNs(
  (h_lins): ModuleList()
  (local_convs): ModuleList(
    (0): GATConv(8415, 256, heads=1)
    (1): GATConv(256, 256, heads=1)
  )
  (lins): ModuleList(
    (0): Linear(in_features=8415, out_features=256, bias=True)
    (1): Linear(in_features=256, out_features=256, bias=True)
  )
  (lns): ModuleList(
    (0): LayerNorm((256,), eps=1e-05, elementwise_affine=True)
    (1): LayerNorm((256,), eps=1e-05, elementwise_affine=True)
  )
  (bns): ModuleList(
    (0): BatchNorm1d(256, eps=1e-05, momentum=0.1, affine=True, track_running_stats=True)
    (1): BatchNorm1d(256, eps=1e-05, momentum=0.1, affine=True, track_running_stats=True)
  )
  (lin_in): Linear(in_features=8415, out_features=256, bias=True)
  (pred_local): Linear(in_features=256, out_features=5, bias=True)
)
Epoch: 00, Loss: 1.9469, Train: 16.90%, Valid: 15.92%, Test: 16.72%, Best Valid: 15.92%, Best Test: 16.72%
Epoch: 100, Loss: 0.0197, Train: 99.86%, Valid: 97.13%, Test: 97.16%, Best Valid: 97.13%, Best Test: 97.07%
Epoch: 200, Loss: 0.0074, Train: 100.00%, Valid: 96.97%, Test: 97.16%, Best Valid: 97.13%, Best Test: 97.07%
Epoch: 300, Loss: 0.0060, Train: 100.00%, Valid: 96.81%, Test: 97.00%, Best Valid: 97.13%, Best Test: 97.07%
…
