…
Namespace(bn=False, cpu=False, data_dir='./data/', dataset='amazon-computer', device=0, display_step=100, dropout=0.5, epochs=1000, gnn='gcn', hidden_channels=512, jk=False, label_num_per_class=20, lambda_val=0.5, ln=True, local_layers=3, lr=0.001, metric='acc', mlp_epochs=500, mlp_reg=False, model='MPNN', model_dir='./model/', num_heads=1, pre_linear=False, pre_ln=False, rand_split=False, rand_split_class=False, reg_start_epoch=10, reg_update_freq=5, res=False, runs=3, save_model=False, seed=42, test_num=1000, train_prop=0.5, use_reg=False, valid_num=500, valid_prop=0.25, weight_decay=5e-05)
amazon-computer
dataset amazon-computer | num nodes 13752 | num edge 491722 | num node feats 767 | num classes 10
MODEL: MPNNs(
  (h_lins): ModuleList()
  (local_convs): ModuleList(
    (0): GCNConv(767, 512)
    (1): GCNConv(512, 512)
    (2): GCNConv(512, 512)
  )
  (lins): ModuleList(
    (0): Linear(in_features=767, out_features=512, bias=True)
    (1): Linear(in_features=512, out_features=512, bias=True)
    (2): Linear(in_features=512, out_features=512, bias=True)
  )
  (lns): ModuleList(
    (0): LayerNorm((512,), eps=1e-05, elementwise_affine=True)
    (1): LayerNorm((512,), eps=1e-05, elementwise_affine=True)
    (2): LayerNorm((512,), eps=1e-05, elementwise_affine=True)
  )
  (bns): ModuleList(
    (0): BatchNorm1d(512, eps=1e-05, momentum=0.1, affine=True, track_running_stats=True)
    (1): BatchNorm1d(512, eps=1e-05, momentum=0.1, affine=True, track_running_stats=True)
    (2): BatchNorm1d(512, eps=1e-05, momentum=0.1, affine=True, track_running_stats=True)
  )
  (lin_in): Linear(in_features=767, out_features=512, bias=True)
  (pred_local): Linear(in_features=512, out_features=10, bias=True)
)
Epoch: 00, Loss: 2.5506, Train: 37.61%, Valid: 36.18%, Test: 38.53%, Best Valid: 36.18%, Best Test: 38.53%
Epoch: 100, Loss: 0.2976, Train: 91.16%, Valid: 89.53%, Test: 91.31%, Best Valid: 89.53%, Best Test: 91.24%
Epoch: 200, Loss: 0.2347, Train: 92.61%, Valid: 91.27%, Test: 92.80%, Best Valid: 91.67%, Best Test: 93.06%
Epoch: 300, Loss: 0.2035, Train: 93.87%, Valid: 91.56%, Test: 93.24%, Best Valid: 92.29%, Best Test: 93.57%
…
e_ln=False, rand_split=False, rand_split_class=False, reg_start_epoch=10, reg_update_freq=5, res=False, runs=3, save_model=False, seed=42, test_num=1000, train_prop=0.5, use_reg=False, valid_num=500, valid_prop=0.25, weight_decay=5e-05)
amazon-computer
dataset amazon-computer | num nodes 13752 | num edge 491722 | num node feats 767 | num classes 10
MODEL: MPNNs(
  (h_lins): ModuleList()
  (local_convs): ModuleList(
    (0): SAGEConv(767, 64, aggr=mean)
    (1): SAGEConv(64, 64, aggr=mean)
    (2): SAGEConv(64, 64, aggr=mean)
    (3): SAGEConv(64, 64, aggr=mean)
  )
  (lins): ModuleList(
    (0): Linear(in_features=767, out_features=64, bias=True)
    (1): Linear(in_features=64, out_features=64, bias=True)
    (2): Linear(in_features=64, out_features=64, bias=True)
    (3): Linear(in_features=64, out_features=64, bias=True)
  )
  (lns): ModuleList(
    (0): LayerNorm((64,), eps=1e-05, elementwise_affine=True)
    (1): LayerNorm((64,), eps=1e-05, elementwise_affine=True)
    (2): LayerNorm((64,), eps=1e-05, elementwise_affine=True)
    (3): LayerNorm((64,), eps=1e-05, elementwise_affine=True)
  )
  (bns): ModuleList(
    (0): BatchNorm1d(64, eps=1e-05, momentum=0.1, affine=True, track_running_stats=True)
    (1): BatchNorm1d(64, eps=1e-05, momentum=0.1, affine=True, track_running_stats=True)
    (2): BatchNorm1d(64, eps=1e-05, momentum=0.1, affine=True, track_running_stats=True)
    (3): BatchNorm1d(64, eps=1e-05, momentum=0.1, affine=True, track_running_stats=True)
  )
  (lin_in): Linear(in_features=767, out_features=64, bias=True)
  (pred_local): Linear(in_features=64, out_features=10, bias=True)
)
Epoch: 00, Loss: 2.2890, Train: 37.61%, Valid: 36.18%, Test: 38.50%, Best Valid: 36.18%, Best Test: 38.50%
Epoch: 100, Loss: 0.4471, Train: 89.18%, Valid: 87.53%, Test: 88.40%, Best Valid: 88.25%, Best Test: 90.08%
Epoch: 200, Loss: 0.2343, Train: 95.09%, Valid: 91.93%, Test: 92.55%, Best Valid: 92.29%, Best Test: 93.46%
Epoch: 300, Loss: 0.1645, Train: 96.96%, Valid: 91.89%, Test: 93.09%, Best Valid: 92.29%, Best Test: 93.46%
…
Namespace(bn=False, cpu=False, data_dir='./data/', dataset='amazon-computer', device=0, display_step=100, dropout=0.5, epochs=1000, gnn='gat', hidden_channels=64, jk=False, label_num_per_class=20, lambda_val=0.5, ln=True, local_layers=2, lr=0.001, metric='acc', mlp_epochs=500, mlp_reg=False, model='MPNN', model_dir='./model/', num_heads=1, pre_linear=False, pre_ln=False, rand_split=False, rand_split_class=False, reg_start_epoch=10, reg_update_freq=5, res=False, runs=3, save_model=False, seed=42, test_num=1000, train_prop=0.5, use_reg=False, valid_num=500, valid_prop=0.25, weight_decay=5e-05)
amazon-computer
dataset amazon-computer | num nodes 13752 | num edge 491722 | num node feats 767 | num classes 10
MODEL: MPNNs(
  (h_lins): ModuleList()
  (local_convs): ModuleList(
    (0): GATConv(767, 64, heads=1)
    (1): GATConv(64, 64, heads=1)
  )
  (lins): ModuleList(
    (0): Linear(in_features=767, out_features=64, bias=True)
    (1): Linear(in_features=64, out_features=64, bias=True)
  )
  (lns): ModuleList(
    (0): LayerNorm((64,), eps=1e-05, elementwise_affine=True)
    (1): LayerNorm((64,), eps=1e-05, elementwise_affine=True)
  )
  (bns): ModuleList(
    (0): BatchNorm1d(64, eps=1e-05, momentum=0.1, affine=True, track_running_stats=True)
    (1): BatchNorm1d(64, eps=1e-05, momentum=0.1, affine=True, track_running_stats=True)
  )
  (lin_in): Linear(in_features=767, out_features=64, bias=True)
  (pred_local): Linear(in_features=64, out_features=10, bias=True)
)
Epoch: 00, Loss: 2.4074, Train: 17.96%, Valid: 18.36%, Test: 16.72%, Best Valid: 18.36%, Best Test: 16.72%
Epoch: 100, Loss: 0.4913, Train: 89.04%, Valid: 87.53%, Test: 90.26%, Best Valid: 88.29%, Best Test: 91.17%
Epoch: 200, Loss: 0.3256, Train: 92.98%, Valid: 91.24%, Test: 92.98%, Best Valid: 91.56%, Best Test: 92.84%
Epoch: 300, Loss: 0.2631, Train: 94.10%, Valid: 91.64%, Test: 93.24%, Best Valid: 92.29%, Best Test: 93.53%
…
