…
, pre_linear=False, pre_ln=False, rand_split=False, rand_split_class=True, reg_start_epoch=10, reg_update_freq=5, res=False, runs=5, save_model=False, seed=123, test_num=1000, train_prop=0.5, use_reg=False, valid_num=500, valid_prop=0.25, weight_decay=0.01)
citeseer
Num nodes: 3327
train:torch.Size([120]), valid:torch.Size([500]), test:torch.Size([1000])
dataset citeseer | num nodes 3327 | num edge 9104 | num node feats 3703 | num classes 6
MODEL: MPNNs(
  (h_lins): ModuleList()
  (local_convs): ModuleList(
    (0): GCNConv(3703, 512)
    (1): GCNConv(512, 512)
  )
  (lins): ModuleList(
    (0): Linear(in_features=3703, out_features=512, bias=True)
    (1): Linear(in_features=512, out_features=512, bias=True)
  )
  (lns): ModuleList(
    (0): LayerNorm((512,), eps=1e-05, elementwise_affine=True)
    (1): LayerNorm((512,), eps=1e-05, elementwise_affine=True)
  )
  (bns): ModuleList(
    (0): BatchNorm1d(512, eps=1e-05, momentum=0.1, affine=True, track_running_stats=True)
    (1): BatchNorm1d(512, eps=1e-05, momentum=0.1, affine=True, track_running_stats=True)
  )
  (lin_in): Linear(in_features=3703, out_features=512, bias=True)
  (pred_local): Linear(in_features=512, out_features=6, bias=True)
)
Epoch: 00, Loss: 1.7945, Train: 37.50%, Valid: 31.40%, Test: 30.20%, Best Valid: 31.40%, Best Test: 30.20%
Epoch: 100, Loss: 0.0689, Train: 100.00%, Valid: 68.20%, Test: 71.50%, Best Valid: 70.40%, Best Test: 72.10%
Epoch: 200, Loss: 0.0504, Train: 100.00%, Valid: 67.40%, Test: 71.40%, Best Valid: 70.40%, Best Test: 72.10%
Epoch: 300, Loss: 0.0543, Train: 100.00%, Valid: 67.00%, Test: 71.30%, Best Valid: 70.40%, Best Test: 72.10%
…
class=True, reg_start_epoch=10, reg_update_freq=5, res=False, runs=5, save_model=False, seed=123, test_num=1000, train_prop=0.5, use_reg=False, valid_num=500, valid_prop=0.25, weight_decay=0.01)
citeseer
Num nodes: 3327
train:torch.Size([120]), valid:torch.Size([500]), test:torch.Size([1000])
dataset citeseer | num nodes 3327 | num edge 9104 | num node feats 3703 | num classes 6
MODEL: MPNNs(
  (h_lins): ModuleList()
  (local_convs): ModuleList(
    (0): SAGEConv(3703, 512, aggr=mean)
    (1): SAGEConv(512, 512, aggr=mean)
    (2): SAGEConv(512, 512, aggr=mean)
  )
  (lins): ModuleList(
    (0): Linear(in_features=3703, out_features=512, bias=True)
    (1): Linear(in_features=512, out_features=512, bias=True)
    (2): Linear(in_features=512, out_features=512, bias=True)
  )
  (lns): ModuleList(
    (0): LayerNorm((512,), eps=1e-05, elementwise_affine=True)
    (1): LayerNorm((512,), eps=1e-05, elementwise_affine=True)
    (2): LayerNorm((512,), eps=1e-05, elementwise_affine=True)
  )
  (bns): ModuleList(
    (0): BatchNorm1d(512, eps=1e-05, momentum=0.1, affine=True, track_running_stats=True)
    (1): BatchNorm1d(512, eps=1e-05, momentum=0.1, affine=True, track_running_stats=True)
    (2): BatchNorm1d(512, eps=1e-05, momentum=0.1, affine=True, track_running_stats=True)
  )
  (lin_in): Linear(in_features=3703, out_features=512, bias=True)
  (pred_local): Linear(in_features=512, out_features=6, bias=True)
)
Epoch: 00, Loss: 1.7929, Train: 35.00%, Valid: 27.20%, Test: 27.50%, Best Valid: 27.20%, Best Test: 27.50%
Epoch: 100, Loss: 0.0172, Train: 100.00%, Valid: 64.60%, Test: 69.10%, Best Valid: 65.80%, Best Test: 70.40%
Epoch: 200, Loss: 0.0166, Train: 100.00%, Valid: 65.00%, Test: 70.20%, Best Valid: 65.80%, Best Test: 70.40%
Epoch: 300, Loss: 0.0140, Train: 100.00%, Valid: 66.00%, Test: 70.20%, Best Valid: 66.00%, Best Test: 70.20%
…
and_split_class=True, reg_start_epoch=10, reg_update_freq=5, res=True, runs=5, save_model=False, seed=123, test_num=1000, train_prop=0.5, use_reg=False, valid_num=500, valid_prop=0.25, weight_decay=0.01)
citeseer
Num nodes: 3327
train:torch.Size([120]), valid:torch.Size([500]), test:torch.Size([1000])
dataset citeseer | num nodes 3327 | num edge 9104 | num node feats 3703 | num classes 6
MODEL: MPNNs(
  (h_lins): ModuleList()
  (local_convs): ModuleList(
    (0): GATConv(3703, 256, heads=1)
    (1): GATConv(256, 256, heads=1)
    (2): GATConv(256, 256, heads=1)
  )
  (lins): ModuleList(
    (0): Linear(in_features=3703, out_features=256, bias=True)
    (1): Linear(in_features=256, out_features=256, bias=True)
    (2): Linear(in_features=256, out_features=256, bias=True)
  )
  (lns): ModuleList(
    (0): LayerNorm((256,), eps=1e-05, elementwise_affine=True)
    (1): LayerNorm((256,), eps=1e-05, elementwise_affine=True)
    (2): LayerNorm((256,), eps=1e-05, elementwise_affine=True)
  )
  (bns): ModuleList(
    (0): BatchNorm1d(256, eps=1e-05, momentum=0.1, affine=True, track_running_stats=True)
    (1): BatchNorm1d(256, eps=1e-05, momentum=0.1, affine=True, track_running_stats=True)
    (2): BatchNorm1d(256, eps=1e-05, momentum=0.1, affine=True, track_running_stats=True)
  )
  (lin_in): Linear(in_features=3703, out_features=256, bias=True)
  (pred_local): Linear(in_features=256, out_features=6, bias=True)
)
Epoch: 00, Loss: 1.8001, Train: 20.00%, Valid: 8.00%, Test: 7.10%, Best Valid: 8.00%, Best Test: 7.10%
Epoch: 100, Loss: 0.0355, Train: 100.00%, Valid: 67.00%, Test: 72.00%, Best Valid: 68.20%, Best Test: 71.30%
Epoch: 200, Loss: 0.0205, Train: 100.00%, Valid: 67.60%, Test: 71.10%, Best Valid: 68.80%, Best Test: 70.40%
Epoch: 300, Loss: 0.0193, Train: 100.00%, Valid: 65.00%, Test: 69.20%, Best Valid: 68.80%, Best Test: 70.40%
…
