…
=1, pre_linear=False, pre_ln=False, rand_split=False, rand_split_class=True, reg_start_epoch=10, reg_update_freq=5, res=False, runs=5, save_model=False, seed=123, test_num=1000, train_prop=0.5, use_reg=False, valid_num=500, valid_prop=0.25, weight_decay=0.0005)
pubmed
Num nodes: 19717
train:torch.Size([60]), valid:torch.Size([500]), test:torch.Size([1000])
dataset pubmed | num nodes 19717 | num edge 88648 | num node feats 500 | num classes 3
MODEL: MPNNs(
  (h_lins): ModuleList()
  (local_convs): ModuleList(
    (0): GCNConv(500, 256)
    (1): GCNConv(256, 256)
  )
  (lins): ModuleList(
    (0): Linear(in_features=500, out_features=256, bias=True)
    (1): Linear(in_features=256, out_features=256, bias=True)
  )
  (lns): ModuleList(
    (0): LayerNorm((256,), eps=1e-05, elementwise_affine=True)
    (1): LayerNorm((256,), eps=1e-05, elementwise_affine=True)
  )
  (bns): ModuleList(
    (0): BatchNorm1d(256, eps=1e-05, momentum=0.1, affine=True, track_running_stats=True)
    (1): BatchNorm1d(256, eps=1e-05, momentum=0.1, affine=True, track_running_stats=True)
  )
  (lin_in): Linear(in_features=500, out_features=256, bias=True)
  (pred_local): Linear(in_features=256, out_features=3, bias=True)
)
Epoch: 00, Loss: 1.0985, Train: 33.33%, Valid: 23.20%, Test: 21.50%, Best Valid: 23.20%, Best Test: 21.50%
Epoch: 100, Loss: 0.0210, Train: 100.00%, Valid: 75.00%, Test: 78.60%, Best Valid: 79.40%, Best Test: 81.90%
Epoch: 200, Loss: 0.0131, Train: 100.00%, Valid: 74.60%, Test: 78.70%, Best Valid: 79.40%, Best Test: 81.90%
Epoch: 300, Loss: 0.0144, Train: 100.00%, Valid: 73.60%, Test: 77.70%, Best Valid: 79.40%, Best Test: 81.90%
…
pdate_freq=5, res=False, runs=5, save_model=False, seed=123, test_num=1000, train_prop=0.5, use_reg=False, valid_num=500, valid_prop=0.25, weight_decay=0.0005)
pubmed
Num nodes: 19717
train:torch.Size([60]), valid:torch.Size([500]), test:torch.Size([1000])
dataset pubmed | num nodes 19717 | num edge 88648 | num node feats 500 | num classes 3
MODEL: MPNNs(
  (h_lins): ModuleList()
  (local_convs): ModuleList(
    (0): SAGEConv(500, 512, aggr=mean)
    (1): SAGEConv(512, 512, aggr=mean)
    (2): SAGEConv(512, 512, aggr=mean)
    (3): SAGEConv(512, 512, aggr=mean)
  )
  (lins): ModuleList(
    (0): Linear(in_features=500, out_features=512, bias=True)
    (1): Linear(in_features=512, out_features=512, bias=True)
    (2): Linear(in_features=512, out_features=512, bias=True)
    (3): Linear(in_features=512, out_features=512, bias=True)
  )
  (lns): ModuleList(
    (0): LayerNorm((512,), eps=1e-05, elementwise_affine=True)
    (1): LayerNorm((512,), eps=1e-05, elementwise_affine=True)
    (2): LayerNorm((512,), eps=1e-05, elementwise_affine=True)
    (3): LayerNorm((512,), eps=1e-05, elementwise_affine=True)
  )
  (bns): ModuleList(
    (0): BatchNorm1d(512, eps=1e-05, momentum=0.1, affine=True, track_running_stats=True)
    (1): BatchNorm1d(512, eps=1e-05, momentum=0.1, affine=True, track_running_stats=True)
    (2): BatchNorm1d(512, eps=1e-05, momentum=0.1, affine=True, track_running_stats=True)
    (3): BatchNorm1d(512, eps=1e-05, momentum=0.1, affine=True, track_running_stats=True)
  )
  (lin_in): Linear(in_features=500, out_features=512, bias=True)
  (pred_local): Linear(in_features=512, out_features=3, bias=True)
)
Epoch: 00, Loss: 1.1016, Train: 33.33%, Valid: 41.80%, Test: 38.80%, Best Valid: 41.80%, Best Test: 38.80%
Epoch: 100, Loss: 0.0003, Train: 100.00%, Valid: 76.60%, Test: 77.50%, Best Valid: 78.20%, Best Test: 78.30%
Epoch: 200, Loss: 0.0004, Train: 100.00%, Valid: 75.60%, Test: 75.50%, Best Valid: 78.20%, Best Test: 78.30%
Epoch: 300, Loss: 0.0007, Train: 100.00%, Valid: 74.60%, Test: 75.90%, Best Valid: 78.20%, Best Test: 78.30%
…
se, pre_ln=False, rand_split=False, rand_split_class=True, reg_start_epoch=10, reg_update_freq=5, res=False, runs=5, save_model=False, seed=123, test_num=1000, train_prop=0.5, use_reg=False, valid_num=500, valid_prop=0.25, weight_decay=0.0005)
pubmed
Num nodes: 19717
train:torch.Size([60]), valid:torch.Size([500]), test:torch.Size([1000])
dataset pubmed | num nodes 19717 | num edge 88648 | num node feats 500 | num classes 3
MODEL: MPNNs(
  (h_lins): ModuleList()
  (local_convs): ModuleList(
    (0): GATConv(500, 512, heads=1)
    (1): GATConv(512, 512, heads=1)
  )
  (lins): ModuleList(
    (0): Linear(in_features=500, out_features=512, bias=True)
    (1): Linear(in_features=512, out_features=512, bias=True)
  )
  (lns): ModuleList(
    (0): LayerNorm((512,), eps=1e-05, elementwise_affine=True)
    (1): LayerNorm((512,), eps=1e-05, elementwise_affine=True)
  )
  (bns): ModuleList(
    (0): BatchNorm1d(512, eps=1e-05, momentum=0.1, affine=True, track_running_stats=True)
    (1): BatchNorm1d(512, eps=1e-05, momentum=0.1, affine=True, track_running_stats=True)
  )
  (lin_in): Linear(in_features=500, out_features=512, bias=True)
  (pred_local): Linear(in_features=512, out_features=3, bias=True)
)
Epoch: 00, Loss: 1.0982, Train: 63.33%, Valid: 42.60%, Test: 39.50%, Best Valid: 42.60%, Best Test: 39.50%
Epoch: 100, Loss: 0.0061, Train: 100.00%, Valid: 73.20%, Test: 74.50%, Best Valid: 80.00%, Best Test: 80.50%
Epoch: 200, Loss: 0.0046, Train: 100.00%, Valid: 69.00%, Test: 71.80%, Best Valid: 80.00%, Best Test: 80.50%
Epoch: 300, Loss: 0.0068, Train: 100.00%, Valid: 74.40%, Test: 74.40%, Best Valid: 80.00%, Best Test: 80.50%
…
