…
Namespace(bn=False, cpu=False, data_dir='./data/', dataset='amazon-computer', device=0, display_step=100, dropout=0.5, epochs=1000, gnn='gcn', hidden_channels=512, jk=False, label_num_per_class=20, lambda_val=0.5, ln=True, local_layers=3, lr=0.001, metric='acc', model='MPNN', model_dir='./model/', num_heads=1, pre_linear=False, pre_ln=False, rand_split=False, rand_split_class=False, reg_start_epoch=10, reg_update_freq=5, res=False, runs=3, save_model=False, seed=42, test_num=1000, train_prop=0.5, use_reg=False, valid_num=500, valid_prop=0.25, weight_decay=5e-05)
amazon-computer
dataset amazon-computer | num nodes 13752 | num edge 491722 | num node feats 767 | num classes 10
MODEL: MPNNs(
  (h_lins): ModuleList()
  (local_convs): ModuleList(
    (0): GCNConv(767, 512)
    (1): GCNConv(512, 512)
    (2): GCNConv(512, 512)
  )
  (lins): ModuleList(
    (0): Linear(in_features=767, out_features=512, bias=True)
    (1): Linear(in_features=512, out_features=512, bias=True)
    (2): Linear(in_features=512, out_features=512, bias=True)
  )
  (lns): ModuleList(
    (0): LayerNorm((512,), eps=1e-05, elementwise_affine=True)
    (1): LayerNorm((512,), eps=1e-05, elementwise_affine=True)
    (2): LayerNorm((512,), eps=1e-05, elementwise_affine=True)
  )
  (bns): ModuleList(
    (0): BatchNorm1d(512, eps=1e-05, momentum=0.1, affine=True, track_running_stats=True)
    (1): BatchNorm1d(512, eps=1e-05, momentum=0.1, affine=True, track_running_stats=True)
    (2): BatchNorm1d(512, eps=1e-05, momentum=0.1, affine=True, track_running_stats=True)
  )
  (lin_in): Linear(in_features=767, out_features=512, bias=True)
  (pred_local): Linear(in_features=512, out_features=10, bias=True)
)
Epoch: 00, Loss: 2.5506, Train: 37.61%, Valid: 36.18%, Test: 38.53%, Best Valid: 36.18%, Best Test: 38.53%
Epoch: 100, Loss: 0.2904, Train: 91.20%, Valid: 89.64%, Test: 91.71%, Best Valid: 90.18%, Best Test: 91.64%
Epoch: 200, Loss: 0.2462, Train: 92.72%, Valid: 90.98%, Test: 92.98%, Best Valid: 91.71%, Best Test: 93.02%
Epoch: 300, Loss: 0.1952, Train: 94.29%, Valid: 91.82%, Test: 93.49%, Best Valid: 92.36%, Best Test: 93.75%
…
e_ln=False, rand_split=False, rand_split_class=False, reg_start_epoch=10, reg_update_freq=5, res=False, runs=3, save_model=False, seed=42, test_num=1000, train_prop=0.5, use_reg=False, valid_num=500, valid_prop=0.25, weight_decay=5e-05)
amazon-computer
dataset amazon-computer | num nodes 13752 | num edge 491722 | num node feats 767 | num classes 10
MODEL: MPNNs(
  (h_lins): ModuleList()
  (local_convs): ModuleList(
    (0): SAGEConv(767, 64, aggr=mean)
    (1): SAGEConv(64, 64, aggr=mean)
    (2): SAGEConv(64, 64, aggr=mean)
    (3): SAGEConv(64, 64, aggr=mean)
  )
  (lins): ModuleList(
    (0): Linear(in_features=767, out_features=64, bias=True)
    (1): Linear(in_features=64, out_features=64, bias=True)
    (2): Linear(in_features=64, out_features=64, bias=True)
    (3): Linear(in_features=64, out_features=64, bias=True)
  )
  (lns): ModuleList(
    (0): LayerNorm((64,), eps=1e-05, elementwise_affine=True)
    (1): LayerNorm((64,), eps=1e-05, elementwise_affine=True)
    (2): LayerNorm((64,), eps=1e-05, elementwise_affine=True)
    (3): LayerNorm((64,), eps=1e-05, elementwise_affine=True)
  )
  (bns): ModuleList(
    (0): BatchNorm1d(64, eps=1e-05, momentum=0.1, affine=True, track_running_stats=True)
    (1): BatchNorm1d(64, eps=1e-05, momentum=0.1, affine=True, track_running_stats=True)
    (2): BatchNorm1d(64, eps=1e-05, momentum=0.1, affine=True, track_running_stats=True)
    (3): BatchNorm1d(64, eps=1e-05, momentum=0.1, affine=True, track_running_stats=True)
  )
  (lin_in): Linear(in_features=767, out_features=64, bias=True)
  (pred_local): Linear(in_features=64, out_features=10, bias=True)
)
Epoch: 00, Loss: 2.2890, Train: 37.61%, Valid: 36.18%, Test: 38.50%, Best Valid: 36.18%, Best Test: 38.50%
Epoch: 100, Loss: 0.4444, Train: 90.58%, Valid: 88.40%, Test: 90.26%, Best Valid: 88.40%, Best Test: 90.26%
Epoch: 200, Loss: 0.2202, Train: 95.52%, Valid: 91.71%, Test: 93.09%, Best Valid: 92.15%, Best Test: 92.95%
Epoch: 300, Loss: 0.1585, Train: 97.20%, Valid: 92.04%, Test: 93.24%, Best Valid: 92.33%, Best Test: 93.49%
…
Namespace(bn=False, cpu=False, data_dir='./data/', dataset='amazon-computer', device=0, display_step=100, dropout=0.5, epochs=1000, gnn='gat', hidden_channels=64, jk=False, label_num_per_class=20, lambda_val=0.5, ln=True, local_layers=2, lr=0.001, metric='acc', model='MPNN', model_dir='./model/', num_heads=1, pre_linear=False, pre_ln=False, rand_split=False, rand_split_class=False, reg_start_epoch=10, reg_update_freq=5, res=False, runs=3, save_model=False, seed=42, test_num=1000, train_prop=0.5, use_reg=False, valid_num=500, valid_prop=0.25, weight_decay=5e-05)
amazon-computer
dataset amazon-computer | num nodes 13752 | num edge 491722 | num node feats 767 | num classes 10
MODEL: MPNNs(
  (h_lins): ModuleList()
  (local_convs): ModuleList(
    (0): GATConv(767, 64, heads=1)
    (1): GATConv(64, 64, heads=1)
  )
  (lins): ModuleList(
    (0): Linear(in_features=767, out_features=64, bias=True)
    (1): Linear(in_features=64, out_features=64, bias=True)
  )
  (lns): ModuleList(
    (0): LayerNorm((64,), eps=1e-05, elementwise_affine=True)
    (1): LayerNorm((64,), eps=1e-05, elementwise_affine=True)
  )
  (bns): ModuleList(
    (0): BatchNorm1d(64, eps=1e-05, momentum=0.1, affine=True, track_running_stats=True)
    (1): BatchNorm1d(64, eps=1e-05, momentum=0.1, affine=True, track_running_stats=True)
  )
  (lin_in): Linear(in_features=767, out_features=64, bias=True)
  (pred_local): Linear(in_features=64, out_features=10, bias=True)
)
Epoch: 00, Loss: 2.4074, Train: 17.96%, Valid: 18.36%, Test: 16.72%, Best Valid: 18.36%, Best Test: 16.72%
Epoch: 100, Loss: 0.4919, Train: 89.01%, Valid: 87.53%, Test: 90.29%, Best Valid: 88.40%, Best Test: 91.20%
Epoch: 200, Loss: 0.3271, Train: 92.91%, Valid: 91.38%, Test: 92.91%, Best Valid: 91.38%, Best Test: 92.80%
Epoch: 300, Loss: 0.2636, Train: 93.88%, Valid: 91.60%, Test: 93.28%, Best Valid: 92.25%, Best Test: 93.89%
…
=False, rand_split=False, rand_split_class=False, reg_start_epoch=10, reg_update_freq=5, res=True, runs=3, save_model=False, seed=42, test_num=1000, train_prop=0.5, use_reg=False, valid_num=500, valid_prop=0.25, weight_decay=5e-05)
amazon-photo
dataset amazon-photo | num nodes 7650 | num edge 238162 | num node feats 745 | num classes 8
MODEL: MPNNs(
  (h_lins): ModuleList()
  (local_convs): ModuleList(
    (0): GCNConv(745, 256)
    (1): GCNConv(256, 256)
    (2): GCNConv(256, 256)
    (3): GCNConv(256, 256)
    (4): GCNConv(256, 256)
    (5): GCNConv(256, 256)
  )
  (lins): ModuleList(
    (0): Linear(in_features=745, out_features=256, bias=True)
    (1): Linear(in_features=256, out_features=256, bias=True)
    (2): Linear(in_features=256, out_features=256, bias=True)
    (3): Linear(in_features=256, out_features=256, bias=True)
    (4): Linear(in_features=256, out_features=256, bias=True)
    (5): Linear(in_features=256, out_features=256, bias=True)
  )
  (lns): ModuleList(
    (0): LayerNorm((256,), eps=1e-05, elementwise_affine=True)
    (1): LayerNorm((256,), eps=1e-05, elementwise_affine=True)
    (2): LayerNorm((256,), eps=1e-05, elementwise_affine=True)
    (3): LayerNorm((256,), eps=1e-05, elementwise_affine=True)
    (4): LayerNorm((256,), eps=1e-05, elementwise_affine=True)
    (5): LayerNorm((256,), eps=1e-05, elementwise_affine=True)
  )
  (bns): ModuleList(
    (0): BatchNorm1d(256, eps=1e-05, momentum=0.1, affine=True, track_running_stats=True)
    (1): BatchNorm1d(256, eps=1e-05, momentum=0.1, affine=True, track_running_stats=True)
    (2): BatchNorm1d(256, eps=1e-05, momentum=0.1, affine=True, track_running_stats=True)
    (3): BatchNorm1d(256, eps=1e-05, momentum=0.1, affine=True, track_running_stats=True)
    (4): BatchNorm1d(256, eps=1e-05, momentum=0.1, affine=True, track_running_stats=True)
    (5): BatchNorm1d(256, eps=1e-05, momentum=0.1, affine=True, track_running_stats=True)
  )
  (lin_in): Linear(in_features=745, out_features=256, bias=True)
  (pred_local): Linear(in_features=256, out_features=8, bias=True)
)
Epoch: 00, Loss: 2.2032, Train: 27.67%, Valid: 27.19%, Test: 27.65%, Best Valid: 27.19%, Best Test: 27.65%
Epoch: 100, Loss: 0.1999, Train: 95.56%, Valid: 94.05%, Test: 94.51%, Best Valid: 94.44%, Best Test: 94.90%
Epoch: 200, Loss: 0.0984, Train: 98.19%, Valid: 94.77%, Test: 95.49%, Best Valid: 94.97%, Best Test: 95.69%
Epoch: 300, Loss: 0.0503, Train: 99.17%, Valid: 94.97%, Test: 96.34%, Best Valid: 95.16%, Best Test: 96.47%
…
poch=10, reg_update_freq=5, res=True, runs=3, save_model=False, seed=42, test_num=1000, train_prop=0.5, use_reg=False, valid_num=500, valid_prop=0.25, weight_decay=5e-05)
amazon-photo
dataset amazon-photo | num nodes 7650 | num edge 238162 | num node feats 745 | num classes 8
MODEL: MPNNs(
  (h_lins): ModuleList()
  (local_convs): ModuleList(
    (0): SAGEConv(745, 64, aggr=mean)
    (1): SAGEConv(64, 64, aggr=mean)
    (2): SAGEConv(64, 64, aggr=mean)
    (3): SAGEConv(64, 64, aggr=mean)
    (4): SAGEConv(64, 64, aggr=mean)
    (5): SAGEConv(64, 64, aggr=mean)
  )
  (lins): ModuleList(
    (0): Linear(in_features=745, out_features=64, bias=True)
    (1): Linear(in_features=64, out_features=64, bias=True)
    (2): Linear(in_features=64, out_features=64, bias=True)
    (3): Linear(in_features=64, out_features=64, bias=True)
    (4): Linear(in_features=64, out_features=64, bias=True)
    (5): Linear(in_features=64, out_features=64, bias=True)
  )
  (lns): ModuleList(
    (0): LayerNorm((64,), eps=1e-05, elementwise_affine=True)
    (1): LayerNorm((64,), eps=1e-05, elementwise_affine=True)
    (2): LayerNorm((64,), eps=1e-05, elementwise_affine=True)
    (3): LayerNorm((64,), eps=1e-05, elementwise_affine=True)
    (4): LayerNorm((64,), eps=1e-05, elementwise_affine=True)
    (5): LayerNorm((64,), eps=1e-05, elementwise_affine=True)
  )
  (bns): ModuleList(
    (0): BatchNorm1d(64, eps=1e-05, momentum=0.1, affine=True, track_running_stats=True)
    (1): BatchNorm1d(64, eps=1e-05, momentum=0.1, affine=True, track_running_stats=True)
    (2): BatchNorm1d(64, eps=1e-05, momentum=0.1, affine=True, track_running_stats=True)
    (3): BatchNorm1d(64, eps=1e-05, momentum=0.1, affine=True, track_running_stats=True)
    (4): BatchNorm1d(64, eps=1e-05, momentum=0.1, affine=True, track_running_stats=True)
    (5): BatchNorm1d(64, eps=1e-05, momentum=0.1, affine=True, track_running_stats=True)
  )
  (lin_in): Linear(in_features=745, out_features=64, bias=True)
  (pred_local): Linear(in_features=64, out_features=8, bias=True)
)
Epoch: 00, Loss: 2.1355, Train: 22.11%, Valid: 21.57%, Test: 22.29%, Best Valid: 21.57%, Best Test: 22.29%
Epoch: 100, Loss: 0.2179, Train: 95.93%, Valid: 93.86%, Test: 95.23%, Best Valid: 94.18%, Best Test: 95.42%
Epoch: 200, Loss: 0.0728, Train: 99.22%, Valid: 94.97%, Test: 96.86%, Best Valid: 95.49%, Best Test: 96.54%
Epoch: 300, Loss: 0.0356, Train: 99.63%, Valid: 94.90%, Test: 96.08%, Best Valid: 95.56%, Best Test: 96.54%
…
Namespace(bn=False, cpu=False, data_dir='./data/', dataset='amazon-photo', device=0, display_step=100, dropout=0.5, epochs=1000, gnn='gat', hidden_channels=64, jk=False, label_num_per_class=20, lambda_val=0.5, ln=True, local_layers=3, lr=0.001, metric='acc', model='MPNN', model_dir='./model/', num_heads=1, pre_linear=False, pre_ln=False, rand_split=False, rand_split_class=False, reg_start_epoch=10, reg_update_freq=5, res=True, runs=3, save_model=False, seed=42, test_num=1000, train_prop=0.5, use_reg=False, valid_num=500, valid_prop=0.25, weight_decay=5e-05)
amazon-photo
dataset amazon-photo | num nodes 7650 | num edge 238162 | num node feats 745 | num classes 8
MODEL: MPNNs(
  (h_lins): ModuleList()
  (local_convs): ModuleList(
    (0): GATConv(745, 64, heads=1)
    (1): GATConv(64, 64, heads=1)
    (2): GATConv(64, 64, heads=1)
  )
  (lins): ModuleList(
    (0): Linear(in_features=745, out_features=64, bias=True)
    (1): Linear(in_features=64, out_features=64, bias=True)
    (2): Linear(in_features=64, out_features=64, bias=True)
  )
  (lns): ModuleList(
    (0): LayerNorm((64,), eps=1e-05, elementwise_affine=True)
    (1): LayerNorm((64,), eps=1e-05, elementwise_affine=True)
    (2): LayerNorm((64,), eps=1e-05, elementwise_affine=True)
  )
  (bns): ModuleList(
    (0): BatchNorm1d(64, eps=1e-05, momentum=0.1, affine=True, track_running_stats=True)
    (1): BatchNorm1d(64, eps=1e-05, momentum=0.1, affine=True, track_running_stats=True)
    (2): BatchNorm1d(64, eps=1e-05, momentum=0.1, affine=True, track_running_stats=True)
  )
  (lin_in): Linear(in_features=745, out_features=64, bias=True)
  (pred_local): Linear(in_features=64, out_features=8, bias=True)
)
Epoch: 00, Loss: 2.2842, Train: 4.49%, Valid: 3.66%, Test: 4.64%, Best Valid: 3.66%, Best Test: 4.64%
Epoch: 100, Loss: 0.3147, Train: 96.45%, Valid: 94.58%, Test: 95.29%, Best Valid: 94.58%, Best Test: 94.51%
Epoch: 200, Loss: 0.1204, Train: 99.02%, Valid: 94.97%, Test: 96.67%, Best Valid: 95.42%, Best Test: 96.14%
Epoch: 300, Loss: 0.0658, Train: 99.67%, Valid: 95.49%, Test: 96.27%, Best Valid: 95.88%, Best Test: 96.73%
…
Namespace(bn=False, cpu=False, data_dir='./data/', dataset='coauthor-cs', device=0, display_step=100, dropout=0.3, epochs=1500, gnn='gcn', hidden_channels=512, jk=False, label_num_per_class=20, lambda_val=0.5, ln=True, local_layers=2, lr=0.001, metric='acc', model='MPNN', model_dir='./model/', num_heads=1, pre_linear=False, pre_ln=False, rand_split=False, rand_split_class=False, reg_start_epoch=10, reg_update_freq=5, res=True, runs=3, save_model=False, seed=42, test_num=1000, train_prop=0.5, use_reg=False, valid_num=500, valid_prop=0.25, weight_decay=0.0005)
coauthor-cs
dataset coauthor-cs | num nodes 18333 | num edge 163788 | num node feats 6805 | num classes 15
MODEL: MPNNs(
  (h_lins): ModuleList()
  (local_convs): ModuleList(
    (0): GCNConv(6805, 512)
    (1): GCNConv(512, 512)
  )
  (lins): ModuleList(
    (0): Linear(in_features=6805, out_features=512, bias=True)
    (1): Linear(in_features=512, out_features=512, bias=True)
  )
  (lns): ModuleList(
    (0): LayerNorm((512,), eps=1e-05, elementwise_affine=True)
    (1): LayerNorm((512,), eps=1e-05, elementwise_affine=True)
  )
  (bns): ModuleList(
    (0): BatchNorm1d(512, eps=1e-05, momentum=0.1, affine=True, track_running_stats=True)
    (1): BatchNorm1d(512, eps=1e-05, momentum=0.1, affine=True, track_running_stats=True)
  )
  (lin_in): Linear(in_features=6805, out_features=512, bias=True)
  (pred_local): Linear(in_features=512, out_features=15, bias=True)
)
Epoch: 00, Loss: 2.8285, Train: 22.05%, Valid: 23.92%, Test: 22.74%, Best Valid: 23.92%, Best Test: 22.74%
Epoch: 100, Loss: 0.0032, Train: 100.00%, Valid: 94.49%, Test: 95.39%, Best Valid: 95.23%, Best Test: 96.13%
Epoch: 200, Loss: 0.0139, Train: 99.79%, Valid: 95.04%, Test: 95.67%, Best Valid: 95.34%, Best Test: 95.80%
Epoch: 300, Loss: 0.0037, Train: 100.00%, Valid: 94.54%, Test: 95.17%, Best Valid: 95.34%, Best Test: 95.80%
…
