…
Namespace(bn=False, cpu=False, data_dir='./data/', dataset='wikics', device=0, display_step=100, dropout=0.5, epochs=1000, gnn='gcn', hidden_channels=256, jk=False, label_num_per_class=20, lambda_val=0.5, ln=True, local_layers=3, lr=0.001, metric='acc', mlp_epochs=500, mlp_reg=False, model='MPNN', model_dir='./model/', num_heads=1, pre_linear=False, pre_ln=False, rand_split=False, rand_split_class=False, reg_start_epoch=10, reg_update_freq=5, res=False, runs=3, save_model=False, seed=42, test_num=1000, train_prop=0.5, use_reg=False, valid_num=500, valid_prop=0.25, weight_decay=0.0)
wikics
dataset wikics | num nodes 11701 | num edge 431726 | num node feats 300 | num classes 10
MODEL: MPNNs(
  (h_lins): ModuleList()
  (local_convs): ModuleList(
    (0): GCNConv(300, 256)
    (1): GCNConv(256, 256)
    (2): GCNConv(256, 256)
  )
  (lins): ModuleList(
    (0): Linear(in_features=300, out_features=256, bias=True)
    (1): Linear(in_features=256, out_features=256, bias=True)
    (2): Linear(in_features=256, out_features=256, bias=True)
  )
  (lns): ModuleList(
    (0): LayerNorm((256,), eps=1e-05, elementwise_affine=True)
    (1): LayerNorm((256,), eps=1e-05, elementwise_affine=True)
    (2): LayerNorm((256,), eps=1e-05, elementwise_affine=True)
  )
  (bns): ModuleList(
    (0): BatchNorm1d(256, eps=1e-05, momentum=0.1, affine=True, track_running_stats=True)
    (1): BatchNorm1d(256, eps=1e-05, momentum=0.1, affine=True, track_running_stats=True)
    (2): BatchNorm1d(256, eps=1e-05, momentum=0.1, affine=True, track_running_stats=True)
  )
  (lin_in): Linear(in_features=300, out_features=256, bias=True)
  (pred_local): Linear(in_features=256, out_features=10, bias=True)
)
Epoch: 00, Loss: 2.4576, Train: 23.28%, Valid: 22.37%, Test: 22.87%, Best Valid: 22.37%, Best Test: 22.87%
Epoch: 100, Loss: 0.2166, Train: 95.17%, Valid: 80.77%, Test: 80.50%, Best Valid: 81.82%, Best Test: 80.40%
Epoch: 200, Loss: 0.1073, Train: 98.28%, Valid: 79.41%, Test: 79.27%, Best Valid: 81.82%, Best Test: 80.40%
Epoch: 300, Loss: 0.0733, Train: 98.97%, Valid: 78.29%, Test: 78.90%, Best Valid: 81.82%, Best Test: 80.40%
…
Namespace(bn=False, cpu=False, data_dir='./data/', dataset='wikics', device=0, display_step=100, dropout=0.7, epochs=1000, gnn='sage', hidden_channels=256, jk=False, label_num_per_class=20, lambda_val=0.5, ln=True, local_layers=2, lr=0.001, metric='acc', mlp_epochs=500, mlp_reg=False, model='MPNN', model_dir='./model/', num_heads=1, pre_linear=False, pre_ln=False, rand_split=False, rand_split_class=False, reg_start_epoch=10, reg_update_freq=5, res=False, runs=3, save_model=False, seed=42, test_num=1000, train_prop=0.5, use_reg=False, valid_num=500, valid_prop=0.25, weight_decay=0.0)
wikics
dataset wikics | num nodes 11701 | num edge 431726 | num node feats 300 | num classes 10
MODEL: MPNNs(
  (h_lins): ModuleList()
  (local_convs): ModuleList(
    (0): SAGEConv(300, 256, aggr=mean)
    (1): SAGEConv(256, 256, aggr=mean)
  )
  (lins): ModuleList(
    (0): Linear(in_features=300, out_features=256, bias=True)
    (1): Linear(in_features=256, out_features=256, bias=True)
  )
  (lns): ModuleList(
    (0): LayerNorm((256,), eps=1e-05, elementwise_affine=True)
    (1): LayerNorm((256,), eps=1e-05, elementwise_affine=True)
  )
  (bns): ModuleList(
    (0): BatchNorm1d(256, eps=1e-05, momentum=0.1, affine=True, track_running_stats=True)
    (1): BatchNorm1d(256, eps=1e-05, momentum=0.1, affine=True, track_running_stats=True)
  )
  (lin_in): Linear(in_features=300, out_features=256, bias=True)
  (pred_local): Linear(in_features=256, out_features=10, bias=True)
)
Epoch: 00, Loss: 2.4612, Train: 33.79%, Valid: 33.85%, Test: 33.56%, Best Valid: 33.85%, Best Test: 33.56%
Epoch: 100, Loss: 0.2676, Train: 97.59%, Valid: 81.84%, Test: 80.61%, Best Valid: 82.25%, Best Test: 80.83%
Epoch: 200, Loss: 0.0689, Train: 99.83%, Valid: 80.60%, Test: 79.58%, Best Valid: 82.25%, Best Test: 80.83%
Epoch: 300, Loss: 0.0251, Train: 100.00%, Valid: 80.17%, Test: 79.75%, Best Valid: 82.25%, Best Test: 80.83%
…
Namespace(bn=False, cpu=False, data_dir='./data/', dataset='wikics', device=0, display_step=100, dropout=0.7, epochs=1000, gnn='gat', hidden_channels=512, jk=False, label_num_per_class=20, lambda_val=0.5, ln=True, local_layers=2, lr=0.001, metric='acc', mlp_epochs=500, mlp_reg=False, model='MPNN', model_dir='./model/', num_heads=1, pre_linear=False, pre_ln=False, rand_split=False, rand_split_class=False, reg_start_epoch=10, reg_update_freq=5, res=True, runs=3, save_model=False, seed=42, test_num=1000, train_prop=0.5, use_reg=False, valid_num=500, valid_prop=0.25, weight_decay=0.0)
wikics
dataset wikics | num nodes 11701 | num edge 431726 | num node feats 300 | num classes 10
MODEL: MPNNs(
  (h_lins): ModuleList()
  (local_convs): ModuleList(
    (0): GATConv(300, 512, heads=1)
    (1): GATConv(512, 512, heads=1)
  )
  (lins): ModuleList(
    (0): Linear(in_features=300, out_features=512, bias=True)
    (1): Linear(in_features=512, out_features=512, bias=True)
  )
  (lns): ModuleList(
    (0): LayerNorm((512,), eps=1e-05, elementwise_affine=True)
    (1): LayerNorm((512,), eps=1e-05, elementwise_affine=True)
  )
  (bns): ModuleList(
    (0): BatchNorm1d(512, eps=1e-05, momentum=0.1, affine=True, track_running_stats=True)
    (1): BatchNorm1d(512, eps=1e-05, momentum=0.1, affine=True, track_running_stats=True)
  )
  (lin_in): Linear(in_features=300, out_features=512, bias=True)
  (pred_local): Linear(in_features=512, out_features=10, bias=True)
)
Epoch: 00, Loss: 2.5524, Train: 23.79%, Valid: 23.61%, Test: 23.72%, Best Valid: 23.61%, Best Test: 23.72%
Epoch: 100, Loss: 0.1039, Train: 98.97%, Valid: 81.95%, Test: 80.59%, Best Valid: 82.50%, Best Test: 81.22%
Epoch: 200, Loss: 0.0201, Train: 100.00%, Valid: 80.96%, Test: 80.19%, Best Valid: 82.50%, Best Test: 81.22%
Epoch: 300, Loss: 0.0110, Train: 100.00%, Valid: 80.70%, Test: 80.23%, Best Valid: 82.50%, Best Test: 81.22%
…
