…
=False, rand_split=False, rand_split_class=False, reg_start_epoch=10, reg_update_freq=5, res=True, runs=3, save_model=False, seed=42, test_num=1000, train_prop=0.5, use_reg=False, valid_num=500, valid_prop=0.25, weight_decay=5e-05)
amazon-photo
dataset amazon-photo | num nodes 7650 | num edge 238162 | num node feats 745 | num classes 8
MODEL: MPNNs(
  (h_lins): ModuleList()
  (local_convs): ModuleList(
    (0): GCNConv(745, 256)
    (1): GCNConv(256, 256)
    (2): GCNConv(256, 256)
    (3): GCNConv(256, 256)
    (4): GCNConv(256, 256)
    (5): GCNConv(256, 256)
  )
  (lins): ModuleList(
    (0): Linear(in_features=745, out_features=256, bias=True)
    (1): Linear(in_features=256, out_features=256, bias=True)
    (2): Linear(in_features=256, out_features=256, bias=True)
    (3): Linear(in_features=256, out_features=256, bias=True)
    (4): Linear(in_features=256, out_features=256, bias=True)
    (5): Linear(in_features=256, out_features=256, bias=True)
  )
  (lns): ModuleList(
    (0): LayerNorm((256,), eps=1e-05, elementwise_affine=True)
    (1): LayerNorm((256,), eps=1e-05, elementwise_affine=True)
    (2): LayerNorm((256,), eps=1e-05, elementwise_affine=True)
    (3): LayerNorm((256,), eps=1e-05, elementwise_affine=True)
    (4): LayerNorm((256,), eps=1e-05, elementwise_affine=True)
    (5): LayerNorm((256,), eps=1e-05, elementwise_affine=True)
  )
  (bns): ModuleList(
    (0): BatchNorm1d(256, eps=1e-05, momentum=0.1, affine=True, track_running_stats=True)
    (1): BatchNorm1d(256, eps=1e-05, momentum=0.1, affine=True, track_running_stats=True)
    (2): BatchNorm1d(256, eps=1e-05, momentum=0.1, affine=True, track_running_stats=True)
    (3): BatchNorm1d(256, eps=1e-05, momentum=0.1, affine=True, track_running_stats=True)
    (4): BatchNorm1d(256, eps=1e-05, momentum=0.1, affine=True, track_running_stats=True)
    (5): BatchNorm1d(256, eps=1e-05, momentum=0.1, affine=True, track_running_stats=True)
  )
  (lin_in): Linear(in_features=745, out_features=256, bias=True)
  (pred_local): Linear(in_features=256, out_features=8, bias=True)
)
Epoch: 00, Loss: 2.2032, Train: 27.67%, Valid: 27.19%, Test: 27.71%, Best Valid: 27.19%, Best Test: 27.71%
Epoch: 100, Loss: 0.2031, Train: 95.45%, Valid: 93.46%, Test: 94.38%, Best Valid: 94.25%, Best Test: 94.64%
Epoch: 200, Loss: 0.1068, Train: 98.21%, Valid: 95.10%, Test: 95.88%, Best Valid: 95.10%, Best Test: 95.88%
Epoch: 300, Loss: 0.0564, Train: 99.06%, Valid: 95.03%, Test: 95.95%, Best Valid: 95.23%, Best Test: 96.08%
…
poch=10, reg_update_freq=5, res=True, runs=3, save_model=False, seed=42, test_num=1000, train_prop=0.5, use_reg=False, valid_num=500, valid_prop=0.25, weight_decay=5e-05)
amazon-photo
dataset amazon-photo | num nodes 7650 | num edge 238162 | num node feats 745 | num classes 8
MODEL: MPNNs(
  (h_lins): ModuleList()
  (local_convs): ModuleList(
    (0): SAGEConv(745, 64, aggr=mean)
    (1): SAGEConv(64, 64, aggr=mean)
    (2): SAGEConv(64, 64, aggr=mean)
    (3): SAGEConv(64, 64, aggr=mean)
    (4): SAGEConv(64, 64, aggr=mean)
    (5): SAGEConv(64, 64, aggr=mean)
  )
  (lins): ModuleList(
    (0): Linear(in_features=745, out_features=64, bias=True)
    (1): Linear(in_features=64, out_features=64, bias=True)
    (2): Linear(in_features=64, out_features=64, bias=True)
    (3): Linear(in_features=64, out_features=64, bias=True)
    (4): Linear(in_features=64, out_features=64, bias=True)
    (5): Linear(in_features=64, out_features=64, bias=True)
  )
  (lns): ModuleList(
    (0): LayerNorm((64,), eps=1e-05, elementwise_affine=True)
    (1): LayerNorm((64,), eps=1e-05, elementwise_affine=True)
    (2): LayerNorm((64,), eps=1e-05, elementwise_affine=True)
    (3): LayerNorm((64,), eps=1e-05, elementwise_affine=True)
    (4): LayerNorm((64,), eps=1e-05, elementwise_affine=True)
    (5): LayerNorm((64,), eps=1e-05, elementwise_affine=True)
  )
  (bns): ModuleList(
    (0): BatchNorm1d(64, eps=1e-05, momentum=0.1, affine=True, track_running_stats=True)
    (1): BatchNorm1d(64, eps=1e-05, momentum=0.1, affine=True, track_running_stats=True)
    (2): BatchNorm1d(64, eps=1e-05, momentum=0.1, affine=True, track_running_stats=True)
    (3): BatchNorm1d(64, eps=1e-05, momentum=0.1, affine=True, track_running_stats=True)
    (4): BatchNorm1d(64, eps=1e-05, momentum=0.1, affine=True, track_running_stats=True)
    (5): BatchNorm1d(64, eps=1e-05, momentum=0.1, affine=True, track_running_stats=True)
  )
  (lin_in): Linear(in_features=745, out_features=64, bias=True)
  (pred_local): Linear(in_features=64, out_features=8, bias=True)
)
Epoch: 00, Loss: 2.1355, Train: 22.11%, Valid: 21.57%, Test: 22.29%, Best Valid: 21.57%, Best Test: 22.29%
Epoch: 100, Loss: 0.2668, Train: 95.16%, Valid: 93.07%, Test: 94.31%, Best Valid: 93.46%, Best Test: 94.18%
Epoch: 200, Loss: 0.0753, Train: 99.30%, Valid: 95.29%, Test: 96.60%, Best Valid: 95.36%, Best Test: 96.60%
Epoch: 300, Loss: 0.0425, Train: 99.54%, Valid: 94.71%, Test: 96.08%, Best Valid: 95.36%, Best Test: 96.60%
…
model_dir='./model/', num_heads=1, pre_linear=False, pre_ln=False, rand_split=False, rand_split_class=False, reg_start_epoch=10, reg_update_freq=5, res=True, runs=3, save_model=False, seed=42, test_num=1000, train_prop=0.5, use_reg=False, valid_num=500, valid_prop=0.25, weight_decay=5e-05)
amazon-photo
dataset amazon-photo | num nodes 7650 | num edge 238162 | num node feats 745 | num classes 8
MODEL: MPNNs(
  (h_lins): ModuleList()
  (local_convs): ModuleList(
    (0): GATConv(745, 64, heads=1)
    (1): GATConv(64, 64, heads=1)
    (2): GATConv(64, 64, heads=1)
  )
  (lins): ModuleList(
    (0): Linear(in_features=745, out_features=64, bias=True)
    (1): Linear(in_features=64, out_features=64, bias=True)
    (2): Linear(in_features=64, out_features=64, bias=True)
  )
  (lns): ModuleList(
    (0): LayerNorm((64,), eps=1e-05, elementwise_affine=True)
    (1): LayerNorm((64,), eps=1e-05, elementwise_affine=True)
    (2): LayerNorm((64,), eps=1e-05, elementwise_affine=True)
  )
  (bns): ModuleList(
    (0): BatchNorm1d(64, eps=1e-05, momentum=0.1, affine=True, track_running_stats=True)
    (1): BatchNorm1d(64, eps=1e-05, momentum=0.1, affine=True, track_running_stats=True)
    (2): BatchNorm1d(64, eps=1e-05, momentum=0.1, affine=True, track_running_stats=True)
  )
  (lin_in): Linear(in_features=745, out_features=64, bias=True)
  (pred_local): Linear(in_features=64, out_features=8, bias=True)
)
Epoch: 00, Loss: 2.2842, Train: 4.49%, Valid: 3.66%, Test: 4.64%, Best Valid: 3.66%, Best Test: 4.64%
Epoch: 100, Loss: 0.3155, Train: 96.49%, Valid: 94.51%, Test: 95.10%, Best Valid: 94.51%, Best Test: 94.84%
Epoch: 200, Loss: 0.1180, Train: 99.15%, Valid: 95.10%, Test: 96.54%, Best Valid: 95.49%, Best Test: 96.41%
Epoch: 300, Loss: 0.0744, Train: 99.72%, Valid: 95.29%, Test: 96.54%, Best Valid: 95.56%, Best Test: 96.67%
…
