…
, test_num=1000, train_prop=0.5, use_reg=True, valid_num=500, valid_prop=0.25, weight_decay=0.0)
minesweeper
dataset minesweeper | num nodes 10000 | num edge 39402 | num node feats 7 | num classes 2
MODEL: MPNNs(
  (h_lins): ModuleList()
  (local_convs): ModuleList(
    (0): GCNConv(7, 64)
    (1): GCNConv(64, 64)
    (2): GCNConv(64, 64)
    (3): GCNConv(64, 64)
    (4): GCNConv(64, 64)
    (5): GCNConv(64, 64)
    (6): GCNConv(64, 64)
    (7): GCNConv(64, 64)
    (8): GCNConv(64, 64)
    (9): GCNConv(64, 64)
    (10): GCNConv(64, 64)
    (11): GCNConv(64, 64)
  )
  (lins): ModuleList(
    (0): Linear(in_features=7, out_features=64, bias=True)
    (1): Linear(in_features=64, out_features=64, bias=True)
    (2): Linear(in_features=64, out_features=64, bias=True)
    (3): Linear(in_features=64, out_features=64, bias=True)
    (4): Linear(in_features=64, out_features=64, bias=True)
    (5): Linear(in_features=64, out_features=64, bias=True)
    (6): Linear(in_features=64, out_features=64, bias=True)
    (7): Linear(in_features=64, out_features=64, bias=True)
    (8): Linear(in_features=64, out_features=64, bias=True)
    (9): Linear(in_features=64, out_features=64, bias=True)
    (10): Linear(in_features=64, out_features=64, bias=True)
    (11): Linear(in_features=64, out_features=64, bias=True)
  )
  (lns): ModuleList(
    (0): LayerNorm((64,), eps=1e-05, elementwise_affine=True)
    (1): LayerNorm((64,), eps=1e-05, elementwise_affine=True)
    (2): LayerNorm((64,), eps=1e-05, elementwise_affine=True)
    (3): LayerNorm((64,), eps=1e-05, elementwise_affine=True)
    (4): LayerNorm((64,), eps=1e-05, elementwise_affine=True)
    (5): LayerNorm((64,), eps=1e-05, elementwise_affine=True)
    (6): LayerNorm((64,), eps=1e-05, elementwise_affine=True)
    (7): LayerNorm((64,), eps=1e-05, elementwise_affine=True)
    (8): LayerNorm((64,), eps=1e-05, elementwise_affine=True)
    (9): LayerNorm((64,), eps=1e-05, elementwise_affine=True)
    (10): LayerNorm((64,), eps=1e-05, elementwise_affine=True)
    (11): LayerNorm((64,), eps=1e-05, elementwise_affine=True)
  )
  (bns): ModuleList(
    (0): BatchNorm1d(64, eps=1e-05, momentum=0.1, affine=True, track_running_stats=True)
    (1): BatchNorm1d(64, eps=1e-05, momentum=0.1, affine=True, track_running_stats=True)
    (2): BatchNorm1d(64, eps=1e-05, momentum=0.1, affine=True, track_running_stats=True)
    (3): BatchNorm1d(64, eps=1e-05, momentum=0.1, affine=True, track_running_stats=True)
    (4): BatchNorm1d(64, eps=1e-05, momentum=0.1, affine=True, track_running_stats=True)
    (5): BatchNorm1d(64, eps=1e-05, momentum=0.1, affine=True, track_running_stats=True)
    (6): BatchNorm1d(64, eps=1e-05, momentum=0.1, affine=True, track_running_stats=True)
    (7): BatchNorm1d(64, eps=1e-05, momentum=0.1, affine=True, track_running_stats=True)
    (8): BatchNorm1d(64, eps=1e-05, momentum=0.1, affine=True, track_running_stats=True)
    (9): BatchNorm1d(64, eps=1e-05, momentum=0.1, affine=True, track_running_stats=True)
    (10): BatchNorm1d(64, eps=1e-05, momentum=0.1, affine=True, track_running_stats=True)
    (11): BatchNorm1d(64, eps=1e-05, momentum=0.1, affine=True, track_running_stats=True)
  )
  (lin_in): Linear(in_features=7, out_features=64, bias=True)
  (pred_local): Linear(in_features=64, out_features=2, bias=True)
)
Pre-training MLP for 500 epochs to generate co-occurrence matrix...
MLP pre-training complete. Penalty matrix frozen.
Epoch: 00, Loss: 0.8811, Train: 59.72%, Valid: 58.52%, Test: 58.07%, Best Valid: 58.52%, Best Test: 58.07%
Epoch: 100, Loss: 0.2607, Train: 94.81%, Valid: 91.98%, Test: 93.12%, Best Valid: 91.98%, Best Test: 93.12%
Epoch: 200, Loss: 0.1861, Train: 98.43%, Valid: 95.39%, Test: 96.25%, Best Valid: 95.39%, Best Test: 96.25%
…
  (local_convs): ModuleList(
    (0): SAGEConv(7, 64, aggr=mean)
    (1): SAGEConv(64, 64, aggr=mean)
    (2): SAGEConv(64, 64, aggr=mean)
    (3): SAGEConv(64, 64, aggr=mean)
    (4): SAGEConv(64, 64, aggr=mean)
    (5): SAGEConv(64, 64, aggr=mean)
    (6): SAGEConv(64, 64, aggr=mean)
    (7): SAGEConv(64, 64, aggr=mean)
    (8): SAGEConv(64, 64, aggr=mean)
    (9): SAGEConv(64, 64, aggr=mean)
    (10): SAGEConv(64, 64, aggr=mean)
    (11): SAGEConv(64, 64, aggr=mean)
    (12): SAGEConv(64, 64, aggr=mean)
    (13): SAGEConv(64, 64, aggr=mean)
    (14): SAGEConv(64, 64, aggr=mean)
  )
  (lins): ModuleList(
    (0): Linear(in_features=7, out_features=64, bias=True)
    (1): Linear(in_features=64, out_features=64, bias=True)
    (2): Linear(in_features=64, out_features=64, bias=True)
    (3): Linear(in_features=64, out_features=64, bias=True)
    (4): Linear(in_features=64, out_features=64, bias=True)
    (5): Linear(in_features=64, out_features=64, bias=True)
    (6): Linear(in_features=64, out_features=64, bias=True)
    (7): Linear(in_features=64, out_features=64, bias=True)
    (8): Linear(in_features=64, out_features=64, bias=True)
    (9): Linear(in_features=64, out_features=64, bias=True)
    (10): Linear(in_features=64, out_features=64, bias=True)
    (11): Linear(in_features=64, out_features=64, bias=True)
    (12): Linear(in_features=64, out_features=64, bias=True)
    (13): Linear(in_features=64, out_features=64, bias=True)
    (14): Linear(in_features=64, out_features=64, bias=True)
  )
  (lns): ModuleList(
    (0): LayerNorm((64,), eps=1e-05, elementwise_affine=True)
    (1): LayerNorm((64,), eps=1e-05, elementwise_affine=True)
    (2): LayerNorm((64,), eps=1e-05, elementwise_affine=True)
    (3): LayerNorm((64,), eps=1e-05, elementwise_affine=True)
    (4): LayerNorm((64,), eps=1e-05, elementwise_affine=True)
    (5): LayerNorm((64,), eps=1e-05, elementwise_affine=True)
    (6): LayerNorm((64,), eps=1e-05, elementwise_affine=True)
    (7): LayerNorm((64,), eps=1e-05, elementwise_affine=True)
    (8): LayerNorm((64,), eps=1e-05, elementwise_affine=True)
    (9): LayerNorm((64,), eps=1e-05, elementwise_affine=True)
    (10): LayerNorm((64,), eps=1e-05, elementwise_affine=True)
    (11): LayerNorm((64,), eps=1e-05, elementwise_affine=True)
    (12): LayerNorm((64,), eps=1e-05, elementwise_affine=True)
    (13): LayerNorm((64,), eps=1e-05, elementwise_affine=True)
    (14): LayerNorm((64,), eps=1e-05, elementwise_affine=True)
  )
  (bns): ModuleList(
    (0): BatchNorm1d(64, eps=1e-05, momentum=0.1, affine=True, track_running_stats=True)
    (1): BatchNorm1d(64, eps=1e-05, momentum=0.1, affine=True, track_running_stats=True)
    (2): BatchNorm1d(64, eps=1e-05, momentum=0.1, affine=True, track_running_stats=True)
    (3): BatchNorm1d(64, eps=1e-05, momentum=0.1, affine=True, track_running_stats=True)
    (4): BatchNorm1d(64, eps=1e-05, momentum=0.1, affine=True, track_running_stats=True)
    (5): BatchNorm1d(64, eps=1e-05, momentum=0.1, affine=True, track_running_stats=True)
    (6): BatchNorm1d(64, eps=1e-05, momentum=0.1, affine=True, track_running_stats=True)
    (7): BatchNorm1d(64, eps=1e-05, momentum=0.1, affine=True, track_running_stats=True)
    (8): BatchNorm1d(64, eps=1e-05, momentum=0.1, affine=True, track_running_stats=True)
    (9): BatchNorm1d(64, eps=1e-05, momentum=0.1, affine=True, track_running_stats=True)
    (10): BatchNorm1d(64, eps=1e-05, momentum=0.1, affine=True, track_running_stats=True)
    (11): BatchNorm1d(64, eps=1e-05, momentum=0.1, affine=True, track_running_stats=True)
    (12): BatchNorm1d(64, eps=1e-05, momentum=0.1, affine=True, track_running_stats=True)
    (13): BatchNorm1d(64, eps=1e-05, momentum=0.1, affine=True, track_running_stats=True)
    (14): BatchNorm1d(64, eps=1e-05, momentum=0.1, affine=True, track_running_stats=True)
  )
  (lin_in): Linear(in_features=7, out_features=64, bias=True)
  (pred_local): Linear(in_features=64, out_features=2, bias=True)
)
Pre-training MLP for 500 epochs to generate co-occurrence matrix...
MLP pre-training complete. Penalty matrix frozen.
Epoch: 00, Loss: 0.6398, Train: 54.35%, Valid: 55.82%, Test: 53.90%, Best Valid: 55.82%, Best Test: 53.90%
Epoch: 100, Loss: 0.2431, Train: 95.56%, Valid: 92.84%, Test: 93.96%, Best Valid: 92.84%, Best Test: 93.96%
Epoch: 200, Loss: 0.1907, Train: 97.92%, Valid: 95.12%, Test: 96.17%, Best Valid: 95.54%, Best Test: 96.41%
…
