…
Namespace(bn=False, cpu=False, data_dir='./data/', dataset='coauthor-cs', device=0, display_step=100, dropout=0.3, epochs=1500, gnn='gcn', hidden_channels=512, jk=False, label_num_per_class=20, lambda_val=0.5, ln=True, local_layers=2, lr=0.001, metric='acc', mlp_epochs=500, mlp_reg=False, model='MPNN', model_dir='./model/', num_heads=1, pre_linear=False, pre_ln=False, rand_split=False, rand_split_class=False, reg_start_epoch=10, reg_update_freq=5, res=True, runs=3, save_model=False, seed=42, test_num=1000, train_prop=0.5, use_reg=False, valid_num=500, valid_prop=0.25, weight_decay=0.0005)
coauthor-cs
dataset coauthor-cs | num nodes 18333 | num edge 163788 | num node feats 6805 | num classes 15
MODEL: MPNNs(
  (h_lins): ModuleList()
  (local_convs): ModuleList(
    (0): GCNConv(6805, 512)
    (1): GCNConv(512, 512)
  )
  (lins): ModuleList(
    (0): Linear(in_features=6805, out_features=512, bias=True)
    (1): Linear(in_features=512, out_features=512, bias=True)
  )
  (lns): ModuleList(
    (0): LayerNorm((512,), eps=1e-05, elementwise_affine=True)
    (1): LayerNorm((512,), eps=1e-05, elementwise_affine=True)
  )
  (bns): ModuleList(
    (0): BatchNorm1d(512, eps=1e-05, momentum=0.1, affine=True, track_running_stats=True)
    (1): BatchNorm1d(512, eps=1e-05, momentum=0.1, affine=True, track_running_stats=True)
  )
  (lin_in): Linear(in_features=6805, out_features=512, bias=True)
  (pred_local): Linear(in_features=512, out_features=15, bias=True)
)
Epoch: 00, Loss: 2.8285, Train: 22.05%, Valid: 23.92%, Test: 22.74%, Best Valid: 23.92%, Best Test: 22.74%
Epoch: 100, Loss: 0.0032, Train: 100.00%, Valid: 94.49%, Test: 95.39%, Best Valid: 95.23%, Best Test: 96.07%
Epoch: 200, Loss: 0.0135, Train: 99.84%, Valid: 94.95%, Test: 95.61%, Best Valid: 95.23%, Best Test: 96.07%
Epoch: 300, Loss: 0.0039, Train: 100.00%, Valid: 94.74%, Test: 95.37%, Best Valid: 95.23%, Best Test: 96.07%
…
Namespace(bn=False, cpu=False, data_dir='./data/', dataset='coauthor-cs', device=0, display_step=100, dropout=0.3, epochs=1500, gnn='gat', hidden_channels=256, jk=False, label_num_per_class=20, lambda_val=0.5, ln=True, local_layers=1, lr=0.001, metric='acc', mlp_epochs=500, mlp_reg=False, model='MPNN', model_dir='./model/', num_heads=1, pre_linear=False, pre_ln=False, rand_split=False, rand_split_class=False, reg_start_epoch=10, reg_update_freq=5, res=True, runs=3, save_model=False, seed=42, test_num=1000, train_prop=0.5, use_reg=False, valid_num=500, valid_prop=0.25, weight_decay=0.0005)
coauthor-cs
dataset coauthor-cs | num nodes 18333 | num edge 163788 | num node feats 6805 | num classes 15
MODEL: MPNNs(
  (h_lins): ModuleList()
  (local_convs): ModuleList(
    (0): GATConv(6805, 256, heads=1)
  )
  (lins): ModuleList(
    (0): Linear(in_features=6805, out_features=256, bias=True)
  )
  (lns): ModuleList(
    (0): LayerNorm((256,), eps=1e-05, elementwise_affine=True)
  )
  (bns): ModuleList(
    (0): BatchNorm1d(256, eps=1e-05, momentum=0.1, affine=True, track_running_stats=True)
  )
  (lin_in): Linear(in_features=6805, out_features=256, bias=True)
  (pred_local): Linear(in_features=256, out_features=15, bias=True)
)
Epoch: 00, Loss: 2.9841, Train: 56.93%, Valid: 55.26%, Test: 55.15%, Best Valid: 55.26%, Best Test: 55.15%
Epoch: 100, Loss: 0.0146, Train: 100.00%, Valid: 95.31%, Test: 96.02%, Best Valid: 95.36%, Best Test: 96.24%
Epoch: 200, Loss: 0.0084, Train: 100.00%, Valid: 94.90%, Test: 95.72%, Best Valid: 95.36%, Best Test: 96.24%
Epoch: 300, Loss: 0.0064, Train: 100.00%, Valid: 94.65%, Test: 95.56%, Best Valid: 95.36%, Best Test: 96.24%
…
