…
Namespace(batch_size=100000, bn=True, cpu=False, data_dir='./data/', dataset='ogbn-arxiv', device=0, display_step=1, dropout=0.5, epochs=2000, eval_epoch=-1, eval_step=1, hidden_channels=512, in_dropout=0.15, jk=False, lambda_val=0.1, ln=False, local_attn=False, local_layers=5, lr=0.0005, metric='acc', mlp_epochs=500, mlp_reg=False, model='MPNN', model_dir='./model/', num_heads=1, oracle_reg=False, pre_ln=False, res=True, result_dir='results/arxiv_oracle', runs=5, sage=False, save_model=False, save_result=True, seed=42, use_reg=False, weight_decay=0.0005)
ogbn-arxiv
dataset ogbn-arxiv | num nodes 169343 | num edge 1166243 | num node feats 128 | num classes 40
MODEL: MPNNs(
  (h_lins): ModuleList(
    (0): Linear(in_features=512, out_features=512, bias=True)
    (1): Linear(in_features=512, out_features=512, bias=True)
    (2): Linear(in_features=512, out_features=512, bias=True)
    (3): Linear(in_features=512, out_features=512, bias=True)
  )
  (local_convs): ModuleList(
    (0): GCNConv(128, 512)
    (1): GCNConv(512, 512)
    (2): GCNConv(512, 512)
    (3): GCNConv(512, 512)
    (4): GCNConv(512, 512)
  )
  (lins): ModuleList(
    (0): Linear(in_features=128, out_features=512, bias=True)
    (1): Linear(in_features=512, out_features=512, bias=True)
    (2): Linear(in_features=512, out_features=512, bias=True)
    (3): Linear(in_features=512, out_features=512, bias=True)
    (4): Linear(in_features=512, out_features=512, bias=True)
  )
  (lns): ModuleList(
    (0): LayerNorm((512,), eps=1e-05, elementwise_affine=True)
    (1): LayerNorm((512,), eps=1e-05, elementwise_affine=True)
    (2): LayerNorm((512,), eps=1e-05, elementwise_affine=True)
    (3): LayerNorm((512,), eps=1e-05, elementwise_affine=True)
    (4): LayerNorm((512,), eps=1e-05, elementwise_affine=True)
  )
  (bns): ModuleList(
    (0): BatchNorm1d(512, eps=1e-05, momentum=0.1, affine=True, track_running_stats=True)
    (1): BatchNorm1d(512, eps=1e-05, momentum=0.1, affine=True, track_running_stats=True)
    (2): BatchNorm1d(512, eps=1e-05, momentum=0.1, affine=True, track_running_stats=True)
    (3): BatchNorm1d(512, eps=1e-05, momentum=0.1, affine=True, track_running_stats=True)
    (4): BatchNorm1d(512, eps=1e-05, momentum=0.1, affine=True, track_running_stats=True)
  )
  (lin_in): Linear(in_features=128, out_features=512, bias=True)
  (ln): LayerNorm((512,), eps=1e-05, elementwise_affine=True)
  (pred_local): Linear(in_features=512, out_features=40, bias=True)
)
Epoch: 00, Loss: 3.8608, Train: 5.62%, Valid: 4.57%, Test: 4.14%, Best Valid: 4.57%, Best Test: 4.14%
Epoch: 01, Loss: 3.5065, Train: 16.22%, Valid: 9.05%, Test: 6.55%, Best Valid: 9.05%, Best Test: 6.55%
Epoch: 02, Loss: 3.1794, Train: 22.15%, Valid: 17.20%, Test: 15.11%, Best Valid: 17.20%, Best Test: 15.11%
Epoch: 03, Loss: 2.8922, Train: 22.84%, Valid: 18.52%, Test: 15.98%, Best Valid: 18.52%, Best Test: 15.98%
…
